mod-lx1-100-2.pt (torch, 283957 bytes, 19 tensors)

c1.weight f4 [10, 1, 3, 3]
000000 04 5d f7 3e 1b 8d 6f bd e2 8f d6 be 9a 28 3a 3f
       0.48313153 -0.058484178 -0.4190665 0.72718203
000010 23 0c 02 be 62 b4 c3 be 2c a3 21 3f 00 b0 bb be
       -0.12699942 -0.3822356 0.63139606 -0.36657715
000020 71 2d 17 bf 31 60 c0 be 27 93 73 bf 9f e2 2c bf
       -0.59053713 -0.37573388 -0.9514641 -0.67533296
000030 10 a8 67 be f4 64 8b bd f6 ae 5d 3e 84 c7 41 3f
       -0.22622705 -0.06806365 0.21648774 0.7569506
000040 f4 f4 26 3f 06 d1 95 3e 39 1f 3d bf c1 18 2e bf
       0.6521752 0.29261035 -0.73875767 -0.6800652
000050 06 dd a4 3e 05 9a a4 3c 04 dc 43 3f f2 c6 0d 3f
       0.32199878 0.020092973 0.7650759 0.5538169
000060 5a 35 97 3d bf b9 b8 3d 25 75 3f bf c4 0a f8 bd
       0.07383223 0.09019803 -0.74788123 -0.121114284
000070 81 3d 58 3e 6a f4 58 3f 26 11 38 3f 28 4e 39 3f
       0.21117212 0.84747946 0.71901166 0.7238488
000080 14 72 55 bf 16 bb b5 be ec 00 2e bf be af 17 bf
       -0.83377194 -0.35494298 -0.67970157 -0.59252536
000090 11 e9 24 bf 86 97 af be ff 99 52 be 64 e8 06 be
       -0.6441813 -0.3429529 -0.20566557 -0.13174587
0000a0 b6 de 82 be 6f a4 24 bf de d9 d5 3e 51 41 f9 3c
       -0.2556054 -0.64313406 0.41767782 0.030426653
0000b0 67 ae 78 bc de 95 1c 3f ee 3c c6 3e 9e 90 76 bd
       -0.0151782995 0.6116618 0.3871836 -0.06019651
0000c0 69 3f 02 bd 70 cd be 3e 75 f5 27 3f ce 33 e1 bd
       -0.031798754 0.3726611 0.6560891 -0.10996209
0000d0 85 73 9e be fd 34 d7 bc 26 9c f5 bd b1 72 30 bf
       -0.3094751 -0.026270384 -0.119926736 -0.68925005
0000e0 f2 21 53 3e 83 0d 35 3f d4 e0 3a bf 9d 57 52 bf
       0.20618418 0.7072374 -0.7299931 -0.8216494
0000f0 49 52 86 3e 8d d4 7e 3f 25 b8 0f be 43 0e e1 be
       0.26234654 0.99543077 -0.1403509 -0.43956193
000100 94 f2 30 3d b2 ce 10 3f cd f0 4b bf 02 03 59 be
       0.04320009 0.5656539 -0.7966431 -0.21192554
000110 09 fb 41 3f d0 6d 0c bf 86 47 a9 be ba 84 41 3f
       0.75773674 -0.5485506 -0.3306238 0.7559315
000120 11 9e 11 bf 4b 84 d8 3e 2c 62 8d 3e 20 29 fb be
       -0.56881815 0.42288432 0.27613962 -0.49054813
000130 93 dd 84 bf f8 c5 09 bf d5 e4 d8 3d 52 79 87 3e
       -1.0380119 -0.538177 0.10590521 0.26459748
000140 b3 a1 b5 be 91 b8 d9 3e a8 3f 36 3f 90 6c 50 3f
       -0.3547493 0.42523625 0.7119088 0.81415653
000150 0a 02 1b bf 6c 06 44 be f8 3e 0a 3f 79 cb bb be
       -0.60549986 -0.19143075 0.5400233 -0.36678675
000160 9c 8f 8a bf 0f 8a c8 be
       -1.0825076 -0.3916783

c2.weight f4 [28, 10, 3, 3]
000000 b8 f6 ae 3e d3 88 27 3e 15 29 33 be d5 80 68 3e
       0.34172606 0.16360788 -0.1749614 0.22705396
000010 ef af 93 bd 48 0a b9 be a3 1c c2 3e c2 52 2e 3c
       -0.07211291 -0.36140656 0.37912473 0.010639848
000020 7f c6 cd 3c 81 a5 42 be cd 98 5c be 27 d1 7c 3e
       0.025119064 -0.19008447 -0.21542664 0.2468916
000030 2a 42 5a be 70 49 37 be 25 6a 16 be 79 9d 04 3e
       -0.21314302 -0.17899108 -0.14688928 0.12950696
000040 29 f5 1d 3e 85 bc 93 3e 9b 99 4a 3d e9 28 57 be
       0.15425552 0.28854766 0.049462896 -0.210117
000050 6c 3f 6f 3e 34 98 17 bd fe 08 a5 be 69 45 eb 3b
       0.23364037 -0.037010387 -0.32233423 0.007179905
000060 48 ef b9 3d 72 79 89 3b 24 58 80 3e aa 19 44 3b
       0.090788424 0.0041953856 0.25067246 0.0029922524
000070 de 20 fd bc 66 79 9d bb d8 ad b9 bc 9a 31 9b be
       -0.030899461 -0.0048057316 -0.022665903 -0.3031128
000080 a4 4d 95 bc c2 82 bf 3e f3 4c 53 3d b9 22 89 3d
       -0.018225498 0.37404448 0.051587056 0.06696076
000090 86 5d d2 3c e7 c4 0f be 09 f2 b4 bb 52 f8 0b be
       0.025679361 -0.14039956 -0.005522017 -0.13668945
0000a0 4e 46 05 be c8 b8 0d 3e 05 12 2b 3d d4 2a a3 3c
       -0.130151 0.1384002 0.04176523 0.019917883
0000b0 e7 19 02 3e c3 02 0d 3e 64 6b 31 be 6f 9f 80 be
       0.12705193 0.13770585 -0.17326123 -0.25121638
0000c0 32 88 f2 3b 16 9d cf be 25 47 58 3d 08 a5 89 bd
       0.0074014897 -0.40549535 0.052802224 -0.0672093
0000d0 5f 00 5f be 31 db 66 3d f3 e5 68 3e 51 68 92 be
       -0.21777485 0.05636138 0.22743969 -0.28595212
0000e0 81 db ba be b2 f8 39 bd 8a 9f 54 bd 47 a6 f1 3d
       -0.36495593 -0.04540319 -0.05190996 0.11799293
0000f0 c2 32 34 3d 48 6d b4 3a 78 cb 5b 3d 3a a9 17 3e
       0.04399372 0.0013765479 0.05366084 0.14810649
000100 42 91 f5 3d 54 a5 22 3e 49 f9 f6 bd 9f 54 6b 3d
       0.11990596 0.1588338 -0.12059266 0.057453748
000110 00 fd 01 be 5a 50 36 be 6d 8e 6f 3c 14 47 de 3d
       -0.12694168 -0.17804089 0.014621359 0.10853401
000120 2f df d8 3d 1b 49 b7 3c f1 1f a0 be df 27 03 3d
       0.10589444 0.022373727 -0.3127437 0.032020446
000130 b5 36 d5 bd 14 ff 05 3f a6 6d 79 bd 68 cd a1 bd
       -0.10410825 0.52342343 -0.060895585 -0.07900506
000140 c1 f0 8b bd 57 95 36 3e 7d db 88 be 50 21 dc be
       -0.068330295 0.17830406 -0.26729956 -0.42994165
000150 e5 f4 60 bd c8 91 65 be 2f 79 6b 3e 7d 5c 92 be
       -0.05492105 -0.22418892 0.22995447 -0.28586188
000160 99 7a d0 bd 57 7a 86 3d 4e 15 6e bc af 75 92 3e
       -0.10179634 0.06566303 -0.014531447 0.2860541
000170 61 4b 24 3e 30 38 90 be 60 e7 43 be 51 c3 17 be
       0.1604438 -0.28167868 -0.19131231 -0.14820601
000180 d7 d7 bc be a8 75 b3 be 84 0c 22 be 0e c2 42 be
       -0.36883423 -0.35050702 -0.15825087 -0.19019338
000190 69 28 d7 bc f6 c0 2f 3d 07 94 81 be 35 17 85 3d
       -0.026264386 0.04290863 -0.25308248 0.06498567
0001a0 8e 66 c2 bc 30 e2 b6 3e 44 65 e1 3e e9 6a ce 3d
       -0.023730543 0.35719442 0.44022572 0.10078985
0001b0 53 cb a4 be e5 fe 8f 3e 85 5a d2 3e d5 85 f6 3c
       -0.32186374 0.28124157 0.41084686 0.030093113
0001c0 5b f9 96 be 60 3f 68 be 84 7c 71 be a2 98 8d 3e
       -0.29487118 -0.22680426 -0.23582655 0.27655512
0001d0 e8 26 c5 3d fc c0 cc be 01 6d 28 be 32 29 06 3f
       0.096265614 -0.39990985 -0.16447832 0.5240661
0001e0 be 5d 39 be ee 32 98 3e 0e cc d7 bc 3b ee d2 bd
       -0.18102166 0.29726356 -0.026342418 -0.10299345
0001f0 a8 f0 04 be 88 7e 7e be 03 90 f4 3c 95 a5 ac 3d
       -0.12982428 -0.24852955 0.029853826 0.0843002
000200 75 50 cb 3b 23 15 23 3e fb 13 53 3e 6e f2 4f bb
       0.0062046596 0.15926032 0.2061309 -0.0031730193
000210 c8 62 92 3b 45 7a b4 3d ec e9 b8 bc 82 40 db bb
       0.004467342 0.088123836 -0.02257248 -0.0066910395
000220 40 bd 39 3d 98 8e 50 3e 90 0e 33 be 1e 17 a0 bd
       0.0453465 0.20366895 -0.17486024 -0.07816909
000230 39 6a 1f be f0 4f 4a be 6a 98 2d be fa 3e 1b be
       -0.15567864 -0.19757056 -0.16952673 -0.15160742
000240 5a f7 0b 3e 80 b7 7b 3d 48 a8 f0 bd a4 33 2f 3e
       0.13668576 0.061454296 -0.11750847 0.17109543
000250 33 65 21 3d 48 f7 ae bc 8c b2 6f bd 22 e9 4e be
       0.03940315 -0.021358147 -0.058519885 -0.2020612
000260 97 e3 53 be 71 25 b6 3e 07 c0 a0 3e 91 75 c4 3c
       -0.20692287 0.3557544 0.31396505 0.023981841
000270 e4 2e 6f bd ee 9a 3e be 49 fd c1 be 28 83 ad be
       -0.058394328 -0.18613788 -0.37888554 -0.33889127
000280 62 35 05 bf d8 a7 13 be 3b 14 4b 3d cb 35 04 bc
       -0.5203458 -0.14419496 0.04957984 -0.008069466
000290 42 67 94 3d ce 7f ea 3d ca 25 04 3e 1a 34 10 3d
       0.07246257 0.11450158 0.1290504 0.035205938
0002a0 ac 22 e0 3d a0 a9 80 3e 6f 43 33 be 30 43 10 bd
       0.10944113 0.25129414 -0.17506193 -0.035220325
0002b0 1c 14 64 bd 69 78 a8 bd 12 18 13 3f 11 de 89 3e
       -0.05568324 -0.082260914 0.57458603 0.26927236
0002c0 87 5e 78 be 32 63 81 be f2 b3 04 bf 4d 34 b9 bc
       -0.2425481 -0.25270993 -0.51837075 -0.022607947
0002d0 78 0d f5 bd b5 52 88 3c 3e 19 70 3d 5d 54 59 be
       -0.119654596 0.016641 0.058617823 -0.21223588
0002e0 be e4 dc 3b 90 3a a2 bd 29 d7 22 be c1 84 95 be
       0.0067411354 -0.07921326 -0.1590239 -0.29202846
0002f0 de fa e9 3d 4c ff 1e be da e8 17 be 06 c4 93 bd
       0.11424802 -0.15527076 -0.1483492 -0.07215123
000300 84 4e 9d be 7e 2a 21 be 8d c2 e6 3d f3 28 37 3e
       -0.30723965 -0.15738866 0.11267576 0.17886715
000310 a0 60 6b be 16 b6 07 be ce 94 67 be 18 51 42 3e
       -0.22986078 -0.13253054 -0.22615358 0.18976247
000320 de 94 a9 3d 1e fd 74 3a 48 25 03 be 4f d8 d8 3c
       0.08280347 0.0009345579 -0.1280719 0.026470331
000330 04 12 87 be 25 e0 0a be c7 e5 7b 3c 6f da 34 be
       -0.26380932 -0.13562067 0.015374607 -0.17661451
000340 69 71 70 be e6 01 e2 3c f5 82 56 be ec a0 80 be
       -0.23480763 0.027588796 -0.20948394 -0.25122774
000350 e1 62 0f bd 00 77 1c be 04 e1 bd be a2 b7 0c be
       -0.035006408 -0.1527977 -0.37085736 -0.13741925
000360 75 28 1c bd 30 5a 37 be 22 fb 6e be 1e 85 0c be
       -0.03812452 -0.17905498 -0.23337987 -0.13722655
000370 56 2a ab bd 74 49 cc 3d 56 d6 d3 3d c4 38 0b bc
       -0.08357684 0.099749476 0.10343616 -0.008497421
000380 fb 05 ec bc 3b 3c d1 bd 7f bb 3d be 9f c8 57 bd
       -0.028811445 -0.10216566 -0.18528555 -0.05268156
000390 2b 0d bc bd 3d a8 94 bc 9c ee 5f bd d2 2f 05 be
       -0.09182199 -0.018146629 -0.054670915 -0.13006523
0003a0 22 c6 93 3d 4b 06 6f bc 8e 0d d0 bd b5 8f cc bd
       0.07215525 -0.014588903 -0.10158835 -0.099883474
0003b0 22 6d 91 3d 0c d1 ff bd f1 ee 32 bd 2a 5d 24 3e
       0.071008936 -0.124910444 -0.043684904 0.16051164
0003c0 9c 0c 7f 3c 8d 86 7f 3d 86 bf 99 3c 57 39 ed 3e
       0.015566971 0.062384177 0.018768083 0.4633281
0003d0 2b b9 07 bd b4 e2 81 be 09 2b ef 3e 9a 8c 3a 3d
       -0.033135574 -0.25368273 0.4671252 0.045544244
0003e0 ef f1 e7 be ce 66 80 3e b0 8a 95 bd e3 76 88 be
       -0.45301768 0.25078434 -0.07301843 -0.26653203
0003f0 c4 b3 08 be 87 ef 1e be 04 d7 02 bd e5 60 66 3d
       -0.13349825 -0.1552106 -0.031943336 0.05624475

c3.weight f4 [28, 28, 3, 3]
000000 76 55 a7 3d 5f 43 81 3c a8 76 d9 bc 4e b9 63 3e
       0.08170597 0.015779195 -0.026545838 0.22238657
000010 d9 a2 4d 3d bf b9 a7 3d 38 8d b3 3e 8f 38 cd 3d
       0.05020413 0.08189725 0.3506868 0.10020553
000020 cf 6b 22 3d 30 81 f8 bd 0c b8 8c 3d 4d 65 eb bc
       0.039653596 -0.121340156 0.06871042 -0.028734827
000030 99 f6 b5 3d f8 23 de bd d6 88 29 be 53 52 c4 3c
       0.088849254 -0.10846704 -0.16556105 0.023965036
000040 63 f4 28 bd 31 14 78 3d ff fc 09 3e d8 39 67 bd
       -0.04124869 0.06056613 0.13475417 -0.05645165
000050 d7 fb 10 3e 73 c2 a5 be 11 3f 87 bd f3 d3 72 3d
       0.1415857 -0.32374915 -0.06603826 0.05928416
000060 ef a3 86 bd a8 26 2f 3e a6 85 af bd b3 77 14 bd
       -0.065742366 0.1710459 -0.08570413 -0.036246967
000070 89 36 92 3e 17 c9 63 bc 3a 7c 00 be 3b 99 2d 3d
       0.28557232 -0.013902924 -0.12547389 0.04238246
000080 a3 7e df bc c3 35 aa bc 91 79 37 3e 74 d3 9f bd
       -0.027282065 -0.020777589 0.17917468 -0.07804003
000090 3a 68 0e 3e 83 80 a4 bc 34 72 cf bc a9 0a 20 be
       0.13906947 -0.02008081 -0.025323011 -0.15629067
0000a0 20 ca 45 bd 26 52 9a 3d 37 1a b2 bc 3c 97 09 be
       -0.048288465 0.075352 -0.021741016 -0.13436598
0000b0 74 39 35 3c dc 92 d4 3d a9 d2 0b 3f c6 fb 35 3e
       0.011061061 0.10379574 0.54618317 0.17771825
0000c0 84 79 5e 3e 91 fb 54 3d 1b e4 1c 3e 58 9a ce bd
       0.21726042 0.051997725 0.1532139 -0.100880325
0000d0 fa 2b 38 bc 0e d7 d9 bd 45 f3 27 3e 0a 5e bb 3d
       -0.011240954 -0.106367216 0.16401394 0.09148796
0000e0 2a ca 0b be 10 75 66 3e ce d8 7b be 27 42 f5 bd
       -0.13651338 0.22505593 -0.24594423 -0.11975508
0000f0 ba 66 35 be 27 b5 f6 3d cb e7 1e bc 9f 6e 2a be
       -0.17714968 0.12046271 -0.009698818 -0.16643761
000100 74 7f 3f 3e a8 a3 6a 3d f8 a0 b2 bd 42 fc 31 3e
       0.18700963 0.05728498 -0.087221086 0.17381385
000110 f9 38 89 3c 68 18 bb 3b de 7a cf 3c 6b 1d 6c 3d
       0.0167508 0.0057096966 0.025327142 0.057645243
000120 e0 00 16 be 5f ab f1 3d bf 21 57 39 6f bf 6f be
       -0.14648771 0.118002646 0.00020516569 -0.2341287
000130 53 e1 83 3d 91 16 7f 3d ad fe 3b bd 19 98 6c bd
       0.064394616 0.06227738 -0.045897175 -0.05776224
000140 bf 7c 47 be a6 72 48 be 2b b0 1b 3e b5 ec 29 3e
       -0.1948118 -0.19574985 0.15203921 0.16594203
000150 49 44 05 3e 57 9d ac 3e 5a 17 3f 3c 5e 51 75 be
       0.1301433 0.3371379 0.011663282 -0.2395682
000160 d1 71 14 3d e5 9c 0e bd 29 9c 4d bd ea ec 84 be
       0.036241356 -0.034817595 -0.050197754 -0.25962
000170 74 9f 45 be f8 15 88 bc 27 c3 03 bd 64 af 01 3c
       -0.19299108 -0.016612038 -0.032168534 0.007915352
000180 b8 40 71 3c fa 95 85 bc d9 c0 c7 bd a9 57 c5 3d
       0.014724903 -0.016306866 -0.0975358 0.096358605
000190 3f 3e 5c be 43 2f 04 bd 29 be 47 be ea 67 46 be
       -0.2150812 -0.032271635 -0.19506134 -0.19375578
0001a0 1f 34 ee bc cd 8c 9d bc c3 2d 25 3e 82 9d c5 3d
       -0.029077588 -0.019232178 0.16130738 0.09649183
0001b0 8f 2f 28 be cf a0 3b be 4d e5 c4 bd 29 a9 7c 3e
       -0.16424392 -0.18323062 -0.09614048 0.24673904
0001c0 20 84 b2 bd 7c c1 d2 3c dc 74 b3 3d c9 8a 85 3d
       -0.08716607 0.025727026 0.087625235 0.06520612
0001d0 9a 54 37 3e 10 5a 64 be 4d fb 97 bd 64 67 1d 3d
       0.17903367 -0.22299981 -0.07420979 0.03842868
0001e0 5d fe fa 3d a0 9d 91 bc ae 6b 87 bd ee fc ee 3d
       0.12255547 -0.017775357 -0.06612335 0.11669336
0001f0 bf 58 10 3e e9 e6 d8 3d 4a 42 50 3e e3 61 7d 3e
       0.14096354 0.105909176 0.20337787 0.24744372
000200 27 e6 52 3d 63 bc 90 3d 24 82 f2 bd 45 9d 1f 3d
       0.05148902 0.07067182 -0.118412286 0.038968343
000210 39 33 bf 3d 40 9c 32 be 26 79 19 be 4e 00 2c be
       0.09335942 -0.17442417 -0.1498762 -0.16796991
000220 eb 52 1e be 42 01 da bc 21 65 84 bd 83 c8 92 be
       -0.15461318 -0.026611928 -0.06464601 -0.28668603
000230 e1 d5 6e 3d 45 fc 1b be 02 89 4d 3d 2e ad 45 3e
       0.05830944 -0.15232952 0.05017949 0.19304344
000240 1d 61 13 3e de 0c ba 3d 5c 27 2c bb cc 67 70 be
       0.14392515 0.090844855 -0.0026268577 -0.23477095
000250 f1 52 96 3b ac 60 ff 3b 73 d3 2e bd 33 0b cf 3d
       0.004587524 0.0077935066 -0.042682122 0.10109558
000260 fb 6d 1a bd c3 23 04 bd 53 8d ee bc a8 de df bc
       -0.03770254 -0.032260668 -0.029120123 -0.02732785
000270 98 6e 4a 3c 0c 75 01 3f a9 be e4 3d dc 2d 28 be
       0.012355469 0.50569224 0.11169178 -0.16423744
000280 db ba a7 3d 38 10 14 bc a7 29 33 bd 6a 21 93 bb
       0.08189937 -0.00903707 -0.043740895 -0.0044900673
000290 77 7f 8d be 5c e8 03 3e a5 9e 35 bd 3b b6 f5 bc
       -0.2763631 0.12881607 -0.04434075 -0.02999412
0002a0 19 70 49 3e 09 3c 49 3e 53 73 69 3e 6e ff ac 3d
       0.19671668 0.19651808 0.22797899 0.08447157
0002b0 4a 4d 83 bc cc 05 8f be c8 4f 7e bd 31 80 41 3d
       -0.016028065 -0.2793411 -0.062087804 0.047241393
0002c0 d5 97 95 3d 3e 7a 93 bc dc e1 fc bd 8f 39 58 be
       0.0730435 -0.018002626 -0.12347767 -0.21115707
0002d0 90 ee 04 3e a7 19 7f bb be cf fc bc 34 a6 fe bd
       0.1298163 -0.0038925202 -0.030860778 -0.124340445
0002e0 c3 ea 62 be 3d d4 4d 3e 6f ef 81 be 77 b7 be 3d
       -0.22159867 0.20100494 -0.25377986 0.09312337
0002f0 22 8f 60 be 8c 1f 45 3e ec eb 87 3e be aa a4 bc
       -0.21929601 0.19250315 0.26547182 -0.020100947
000300 69 de 07 be f3 f3 78 be fc ac ae 3d 17 a1 d1 bc
       -0.13268436 -0.24311809 0.08529088 -0.025589509
000310 12 5b d7 3d 3d 89 25 3c 37 8a e6 3d d5 a7 5f 3e
       0.10515417 0.010103521 0.11256831 0.21841367
000320 b2 67 89 3d 8f c1 59 3e 5a 79 8c 3d e8 05 cb 3d
       0.067092314 0.21265243 0.068590835 0.09913236
000330 c7 9a a4 bb 6a 63 78 3b 29 41 c2 3d 61 30 72 3c
       -0.0050233337 0.0037901052 0.094850846 0.014782042
000340 be bf 26 3d f0 82 c4 3d 98 37 41 3e f5 dd 12 bc
       0.040710203 0.09595287 0.18868864 -0.0089640515
000350 21 5a 10 3e 83 d9 11 be ec 38 36 3e f7 7c 93 bd
       0.14096881 -0.1424313 0.17795151 -0.072015695
000360 e1 ca 7c bd d3 b9 aa be c3 84 c6 be dc 3c 2a be
       -0.061716918 -0.33344898 -0.38773164 -0.16624779
000370 41 5c 74 3d 26 4e 59 be 23 4e 8b bb e6 17 78 3e
       0.059658293 -0.21221218 -0.004251258 0.24227867
000380 3a 57 60 be e9 18 46 3d fb c7 95 3e 53 dc 0d bd
       -0.21908274 0.0483636 0.29254135 -0.034633946
000390 77 6a f4 3d e6 08 37 3e 7a f8 9d 3d 1d 0c 5c bd
       0.11934369 0.17874488 0.07713409 -0.05372249
0003a0 ea 40 b7 3d f6 76 51 3d e5 e8 b2 be a8 49 13 be
       0.08947928 0.05113884 -0.3494331 -0.14383566
0003b0 ab 0a fe bd c7 3e a3 3e d7 1f d1 3e 38 b3 59 3e
       -0.124043785 0.31883833 0.40844604 0.21259773
0003c0 8c 99 97 3e bf 91 1e 3e 46 d4 c8 3b d9 15 c6 3d
       0.29609334 0.15485285 0.0061288206 0.09672136
0003d0 eb bb 2c 3e 5e 46 a5 3e 4a 33 da bd 08 ca 33 be
       0.1686856 0.32280248 -0.10654314 -0.17557538
0003e0 8d 60 10 be f7 65 14 be 8c 2d c3 3c 9c 10 a3 bd
       -0.14099331 -0.14492022 0.02382543 -0.07962152
0003f0 cd be 3a 3e a4 45 f6 3d 22 9e 93 3e f7 30 95 3c
       0.18236847 0.12025002 0.28831583 0.018211825

l1.weight f4 [168, 252]
000000 cf 11 d1 bc 5d 4e 37 3c b5 5c 2d 3a 8a 88 8a bd
       -0.025521187 0.011188117 0.00066132407 -0.06764324
000010 8d 23 96 3d 91 5d aa bc 62 87 ee 3c 4b ca 4c bd
       0.073309995 -0.020796569 0.02911729 -0.04999761
000020 a2 da 74 bd 69 85 63 bb c1 59 c9 3c 78 ca 95 3b
       -0.059778817 -0.003471697 0.02457893 0.0045712553
000030 4f 88 d5 bd 43 e4 fc 3d 49 16 05 bd 08 17 00 3d
       -0.104263894 0.12348225 -0.032491956 0.031271964
000040 61 1d 58 3d f7 59 f7 bd 4c ae 1f bd e6 91 2d bd
       0.052762393 -0.12077706 -0.03898458 -0.042375468
000050 df 01 63 3d 21 0a 7d 3b 12 f4 13 bc 20 d7 af bd
       0.055421706 0.0038610774 -0.009030359 -0.08585954
000060 f1 83 1e 3d 05 f1 d6 bb f0 43 82 bd 0e 1b 6b 3d
       0.038700048 -0.0065594935 -0.06360614 0.05739885
000070 c2 5a 67 bd 59 b2 b8 bc 6d 85 a8 bc c8 2e c5 bc
       -0.056483038 -0.02254598 -0.020571435 -0.024070159
000080 02 b3 e4 3c 31 72 27 3b 7c 37 0a 3c 6c 4b da bd
       0.027917389 0.002555024 0.00843608 -0.10658917
000090 bc d5 60 bd 93 13 4a bd f5 7d be 3a d4 1c 12 3d
       -0.054891333 -0.049335074 0.0014533388 0.035672024
0000a0 74 bf 90 bd 45 d7 8d bd 28 e5 09 3d 2f fb e2 bc
       -0.07067767 -0.06925825 0.033665806 -0.027707664
0000b0 c0 9b 5a 3c bf 5f b5 bc 60 c2 27 3d c9 fd 15 3d
       0.013342798 -0.022140382 0.040956855 0.03661898
0000c0 b1 32 2d 3d 5e 74 0b 3e 6a 0d 97 3d 0c 00 28 bd
       0.04228467 0.1361861 0.073756054 -0.04101567
0000d0 81 b4 2f bd 23 76 37 bd 79 e1 13 bb cf b5 94 3d
       -0.04289675 -0.0447904 -0.0022564812 0.0726124
0000e0 1d 9c 18 3d dc ca e5 bb 88 e5 19 3d 40 c0 13 3c
       0.037258256 -0.007012708 0.037572414 0.009018004
0000f0 2a 3c 23 bc 80 32 a5 bd 49 8e bb 3b 47 a6 9b bd
       -0.009963075 -0.08066273 0.005723749 -0.07600074
000100 45 11 68 3d eb b4 05 3d a9 c5 4e bd d8 fb 9e 3d
       0.056657095 0.03264324 -0.050481472 0.07762879
000110 02 68 99 3b 1b cc 3f 3d 61 28 de bc e8 44 a0 3c
       0.004681588 0.04682551 -0.027118864 0.019564107
000120 2f 90 20 bc ed d1 80 3c d5 bb bf 3c 27 b3 a8 3c
       -0.009800001 0.0157251 0.023404995 0.020593239
000130 eb 9f 83 3c ac 67 37 3c 5d e5 0f bc 92 a7 b0 bc
       0.016067466 0.011194151 -0.008782712 -0.021564279
000140 8d 73 80 3d 19 34 cd 3a 26 6c 2f 3d 6b 28 36 39
       0.062720396 0.0015655785 0.042827748 0.0001737193
000150 29 a1 d9 bc 2d 3f 75 3d a6 5a dc 3d 3d fb 0d 3d
       -0.026566105 0.059874702 0.10759477 0.034663428
000160 40 80 bd 3d 0d 8d 38 3d cf 2f 42 bd 00 b2 41 3d
       0.09252977 0.04505639 -0.047408875 0.047288895
000170 70 8e 3a 3d 64 81 29 bd f9 5d 54 3d 38 9c cb 3c
       0.045545995 -0.041383162 0.05184743 0.024854764
000180 e5 a0 9c bc b0 2a bb bd 57 24 1a bd 06 fe 8b 3c
       -0.01911969 -0.09139001 -0.037632313 0.017088901
000190 e5 bb 36 bd e0 da 60 3b 84 af 83 3c e1 66 04 bd
       -0.044612784 0.0034310147 0.016074903 -0.032324675
0001a0 73 a8 88 bb 00 df 75 3d 19 d8 da 3d 21 59 87 3c
       -0.0041704713 0.060027122 0.106857486 0.016521992
0001b0 08 8c 73 bd dd fb 76 3c 1c 51 00 bd 42 85 37 bd
       -0.059459716 0.015074697 -0.031327352 -0.04480482
0001c0 d9 7c b4 3d 61 73 b9 bd bf 4f d9 3c ce 55 a9 3d
       0.08812875 -0.0905521 0.026527284 0.08268319
0001d0 af c7 9a bd 65 c4 a5 bd e2 04 41 bd 85 84 2e 3d
       -0.07557618 -0.080941 -0.047123797 0.04260685
0001e0 63 e7 d4 bd eb 41 8e bc 61 6c e3 3c 49 07 19 3d
       -0.10395696 -0.017365417 0.02776164 0.037360463
0001f0 03 1c 02 bc ba ed 81 bd b7 f9 3b 3d 8f de 21 3d
       -0.007941249 -0.06344171 0.045892444 0.03951889
000200 0e 98 09 bd 93 dc e2 bb 2a ab 75 bc f7 12 11 3a
       -0.033592276 -0.006923267 -0.014994422 0.0005534137
000210 02 e8 16 3b 9e 6c 2c 3d ee de cf 3d 33 72 59 bd
       0.002302647 0.042095773 0.10149942 -0.053087424
000220 e2 db 61 3d d2 00 be 3b d4 72 a1 3d c7 23 ba 3a
       0.055141337 0.0057984376 0.0788323 0.0014201336
000230 2d 97 10 3d 70 a2 28 bd 1e b2 ca 3c 50 38 62 3c
       0.035300422 -0.041170537 0.024743136 0.013807371
000240 63 48 83 bd 52 1f 87 3c c3 1d 89 bc c6 b6 8f 3d
       -0.06410291 0.016494427 -0.016737824 0.07017283
000250 14 96 00 3d 75 9f 96 3d e1 81 c7 3d 61 4e 50 bd
       0.031393126 0.07354633 0.09741569 -0.050855998
000260 0f 5a 34 bd f1 ca 70 3d 1d df 01 b7 2e 8f b8 3c
       -0.0440312 0.05878729 -7.740947e-06 0.02252921
000270 a8 cc c2 3d 9e ba 89 bd b8 62 df 3b 3a b1 a0 bd
       0.09511691 -0.067250475 0.006817188 -0.07846303
000280 02 4b 2d 3c bd 2e 5d bd 1c 21 f2 3c 42 e5 43 bd
       0.010576965 -0.05399965 0.029556803 -0.04782606
000290 e0 18 86 3c 25 fb 02 bd a3 2a 74 3d 66 aa 26 bb
       0.016369283 -0.03197779 0.059610974 -0.0025431155
0002a0 1f 7f 01 bd b9 c7 98 3d 56 06 c1 3c 48 2c cc 3b
       -0.031615373 0.07459969 0.023562592 0.0062308647
0002b0 e4 29 bd bd e3 e0 03 37 59 c6 98 bd e5 fc d6 3c
       -0.09236506 7.860569e-06 -0.07459707 0.026243636
0002c0 d4 5e cb 3b c5 37 d2 ba 89 26 19 bc 15 d7 02 bd
       0.0062063728 -0.0016038349 -0.009347566 -0.0319434
0002d0 b2 6c 71 bd e6 c4 0e bc aa fd 22 3c 71 ce 09 be
       -0.05894155 -0.008713936 0.009948174 -0.13457657
0002e0 37 ea 8f 3d b4 19 5d bc a2 ae 4a bd 7c 75 49 38
       0.07027095 -0.013494898 -0.04948295 4.803155e-05
0002f0 80 cb 65 3c a6 dc 4d 3d ff d5 78 bd b2 07 ff 3c
       0.014025569 0.050259255 -0.060750958 0.0311316
000300 a2 2e 05 bd 91 a5 96 bd 70 43 2c 3d 66 6a 65 3d
       -0.032515176 -0.07355798 0.0420565 0.056009673
000310 0f 92 e8 bc 36 52 89 bd 94 9a ae bd 3b 6e ac 3c
       -0.028389959 -0.067051336 -0.08525577 0.021048656
000320 fd 77 51 3d 5c 73 9e 3c c8 ac 5a 3d 1e 7d 47 3d
       0.05113982 0.019342117 0.053387433 0.048703305
000330 ef c0 51 bb 12 1f 88 bd d0 f6 90 bd 66 9d 1e bd
       -0.0032005867 -0.06646551 -0.07078326 -0.038724326
000340 98 bd 94 bd 6a 65 1e 3d 85 99 51 bd fa 78 54 3c
       -0.07262725 0.038670935 -0.0511718 0.012968296
000350 7d 16 c2 bc 01 c8 23 bd 37 62 41 3c 08 aa f7 3b
       -0.023692364 -0.03998566 0.011803201 0.007558111
000360 33 14 31 bd 53 b9 a8 bd c9 d6 60 3b e1 30 0a 3d
       -0.043232154 -0.08238473 0.003430771 0.03373802
000370 71 81 26 bb 96 6f 17 bd 49 c6 01 3d aa 8b c8 3d
       -0.0025406743 -0.03697165 0.03168324 0.09792264
000380 35 8a 84 bc b7 a3 35 bc 2e a9 2c bd 7b aa a8 3d
       -0.016179183 -0.011086396 -0.04215353 0.082356416
000390 f1 aa ee bd 5d 99 d5 3b 54 7e d5 bc 73 69 37 3d
       -0.11653698 0.0065185265 -0.026061215 0.0447783
0003a0 18 09 62 3c 23 58 1d bd f9 c8 a6 bb ac 21 31 bc
       0.013796113 -0.03841413 -0.005089876 -0.010811251
0003b0 a9 f5 fd bb 48 5b 8a bd fe bc 94 bc 6a e8 83 3d
       -0.0077502322 -0.06755692 -0.018156525 0.06440814
0003c0 9c 3b 91 bd d3 f9 30 bd 34 2e 20 bd 09 a8 cd 3b
       -0.07091448 -0.043207 -0.039106563 0.006276135
0003d0 38 f7 99 3c 28 bd 3d bd 9f bd 73 bd 19 bb 04 3d
       0.01879464 -0.04632297 -0.05950701 0.032404993
0003e0 59 d1 05 bd 4a 7a 02 bd 76 4a 9a ba 81 7f 62 bd
       -0.032670353 -0.031854905 -0.0011771459 -0.05529738
0003f0 04 61 ae bc fe 3f 02 3d 4f c7 8a 3d 12 9b 8c bc
       -0.021286495 0.03179931 0.06776296 -0.017163787

l1.bias f4 [168]
000000 60 5e 8c 3d 64 21 20 3d 5a 97 24 bd fd c7 c1 bd
       0.06853938 0.039094344 -0.040183403 -0.09461973
000010 2a 1b 23 bd 2c 3a d2 3c e7 db 34 bc ef 27 ee 3c
       -0.039820828 0.025662504 -0.011038757 0.029071776
000020 f5 c2 1f 3d 2c b7 0b 3d 72 80 c5 bb 73 85 4e 3d
       0.039004285 0.034110233 -0.0060272748 0.050420236
000030 99 03 c5 3c a6 94 b3 3c 8e 56 4c bd 0b ee d3 3c
       0.024049567 0.021921467 -0.049887232 0.025870344
000040 d6 bc 5e bc 2b a9 3a bd 6f 3e 12 3d 71 23 bb bc
       -0.013594827 -0.045571487 0.035704073 -0.022844048
000050 ff ff 80 3d 07 01 d9 3c 0a a9 42 3d 82 3b 15 bd
       0.062988274 0.026489748 0.04752449 -0.036433704
000060 80 da 8b 3d 6b ad 71 bc cd 38 2f 3c 62 47 fd bb
       0.06828785 -0.014750819 0.010694695 -0.0077294568
000070 57 03 e9 3c 7b 56 62 bd 53 cd 11 bd bb c5 04 bc
       0.028443975 -0.055258255 -0.035596203 -0.008103783
000080 a0 ef 4b 3d 23 2d 89 3c 69 15 1e 3d 91 37 e2 3c
       0.04978907 0.016745156 0.038594637 0.027614387
000090 0a ec c4 3d 9e 85 c4 3b 84 bb b6 3c 4a 12 80 3d
       0.096153334 0.0059973737 0.022306211 0.06253488
0000a0 24 f2 41 bb d5 e9 70 bd 65 d5 21 bd d2 8d 62 3d
       -0.002959379 -0.05881675 -0.03951015 0.05531103
0000b0 7a de 77 3c be f7 8d 3d dc a3 65 3d c8 c1 06 3c
       0.015128726 0.06932019 0.05606447 0.008224912
0000c0 b3 30 25 bd 0a c0 5f 3d 73 4b cd 3d 5f fd 8a 3c
       -0.040329646 0.054626502 0.100241564 0.01696652
0000d0 66 b6 d8 3c 98 63 e4 bc 38 62 3f 3d e3 d6 24 3d
       0.026454162 -0.027879521 0.046724528 0.040243994
0000e0 c7 66 10 3d a5 5f f8 3a d7 86 d4 bb 0f 03 7d 3c
       0.035254266 0.0018949403 -0.0064858007 0.015442624
0000f0 f4 71 d4 3c 33 58 87 3c 77 5a 5c bd 6f 0c 9f bc
       0.025933243 0.016521549 -0.05379721 -0.019415108
000100 d7 d9 a2 3d ef c4 aa 3c e6 bf 80 bd 15 d0 57 bd
       0.07951706 0.020845858 -0.06286602 -0.052688677
000110 ce 46 25 3d c1 a5 9f 3c cf b3 0b bd de a2 63 bc
       0.040350728 0.019488217 -0.034107026 -0.013893811
000120 36 67 a3 3c aa c6 dc 3b 77 49 8c 3d 87 a3 e0 3c
       0.019946676 0.00673755 0.0684995 0.027421726
000130 d9 55 84 bc 37 ec 9d 3c c3 b6 0a 3d 20 a5 b6 bc
       -0.016154217 0.019277675 0.0338657 -0.022295535
000140 72 1a b2 bd d6 53 19 bd 0a 2e 77 bd 46 8f 55 3d
       -0.0869645 -0.037433468 -0.06034664 0.05213859
000150 09 74 c8 bc 41 ad 0d 3d 54 7d c4 3d 38 09 25 3c
       -0.024469392 0.034589056 0.09594217 0.010072999
000160 5c e4 68 3d b7 83 72 3d 39 1c 8e 3d 72 81 97 3d
       0.056858405 0.059207644 0.06938977 0.073977366
000170 15 a5 a8 3b 76 48 bf 3c 7d 4c 36 bd 68 78 23 bd
       0.0051466324 0.023349982 -0.04450654 -0.03990975
000180 73 13 a3 bc 7b f5 13 3d cd 06 75 3d 42 e1 79 bc
       -0.019906735 0.03612278 0.05982094 -0.01525146
000190 ef 3a cc bc 88 c1 79 3c df 22 ff 3c ff 0f 20 3d
       -0.024930445 0.015243895 0.031144558 0.039077755
0001a0 a7 a6 d7 3d 8a c9 c1 3c 75 f3 31 3d 6d 82 03 3c
       0.10529833 0.023655672 0.04344507 0.008026701
0001b0 10 76 de 3b 2c 61 0b bd 73 8c 39 bd 8d ca f9 bc
       0.0067889765 -0.034028217 -0.04529996 -0.030492092
0001c0 a1 d6 be 3d fc a9 51 bc c4 d3 81 bd ba 82 31 3d
       0.09318281 -0.012796875 -0.06339219 0.04333756
0001d0 da 08 32 3d 9c 73 2f 3c c7 87 7e bd 90 fc 8f 3d
       0.043465473 0.010708716 -0.062141206 0.07030594
0001e0 9c f3 51 bd 34 7d c7 bb 2d 14 1c 3d d5 18 11 bd
       -0.051257715 -0.0060879234 0.03810518 -0.035424072
0001f0 cb 71 09 3d 76 36 e1 bc 92 46 ab bd d9 c6 5b 3d
       0.033555787 -0.02749179 -0.083630696 0.053656433
000200 56 65 10 bd 09 71 f9 3c b5 16 24 3d ca d8 46 bd
       -0.03525289 0.030449407 0.040060718 -0.04854659
000210 e8 7b a2 3d 0e 67 13 3d be e7 40 3d 7e f8 fd bc
       0.079337895 0.035986952 0.047096007 -0.03100228
000220 74 6e 05 bd e5 74 24 3d 4c ba 32 3c 09 26 a4 bc
       -0.03257604 0.04015054 0.010908674 -0.020037668
000230 28 14 53 bd 02 77 af 3d f4 34 59 bc 40 69 77 3d
       -0.051532894 0.08567621 -0.013257254 0.06040311
000240 9b 3a 2c 3d 49 49 77 3d 0b d0 0d bd eb 99 e6 3a
       0.042048078 0.060372625 -0.034622233 0.0017593479
000250 29 83 23 3d 32 66 5d bd 77 e5 9d bb 77 28 79 bd
       0.039920006 -0.05405254 -0.004818614 -0.060829606
000260 11 ac 3a bd 1d f3 e1 bb 0a d5 9f bc 23 8c e7 bc
       -0.04557425 -0.0068954364 -0.019510765 -0.028265065
000270 14 b6 bf bc 9f b1 61 3d de ca 1b 3d c2 55 31 bb
       -0.023402251 0.055101033 0.038035266 -0.0027059172
000280 ca ec 46 bd ca 98 2d 3d 07 4b 76 bd 5b ff 7d 3c
       -0.048565663 0.04238204 -0.060130145 0.015502776
000290 0b 98 67 3d f4 6b 6b 3d c6 2f 13 3d 24 31 a9 bb
       0.056541484 0.057476 0.035934232 -0.0051633287

l2.weight f4 [100, 168]
000000 57 c7 93 bc 4c 25 d4 bc 1f db 1a bd 40 f9 24 3c
       -0.018039389 -0.02589669 -0.037806626 0.010069191
000010 57 f9 84 3d 5e ca b5 3d 6d 0d 6f bc 74 e4 14 3d
       0.0649287 0.08876489 -0.014590603 0.036350682
000020 b7 f8 4a 3d 99 34 5e 3d 52 19 04 bd 29 87 4b 3c
       0.0495536 0.05424938 -0.03225071 0.012422361
000030 5d 73 a6 bc 29 ef 9a 3d 31 4a 66 3d e6 cd d4 3c
       -0.020318681 0.075651474 0.0562231 0.025977086
000040 ae e8 19 3e c1 a9 02 be a2 e7 24 bd 5a 8e bc 3b
       0.15030167 -0.12760068 -0.040259965 0.0057542743
000050 2f 3a b9 bc bc 6c 8d bb 66 cb 37 bc 44 c3 6e 3c
       -0.022610752 -0.0043159407 -0.011217928 0.014572922
000060 2e e5 11 3d f9 46 e0 bc e2 9b ab bc be ff cd 3c
       0.035618953 -0.027377592 -0.020948354 0.025146361
000070 64 7d 30 bd da 3d 38 3b be 5f c7 3c 4b 2b 98 3c
       -0.04308833 0.0028113038 0.024337646 0.018575331
000080 5c b3 cb bb bd 35 8a bd bc f4 01 3e 4e f7 4a 3d
       -0.0062164497 -0.06748531 0.12691015 0.049552254
000090 90 5f 17 3d 6f 78 67 39 1b 26 85 3c b4 8d 33 3e
       0.03695637 0.00022074742 0.016253522 0.17534524
0000a0 fd 13 86 bd 3f dd 73 3c f1 8f da 3a 88 8a 22 3d
       -0.06546781 0.014884292 0.0016674978 0.039682895
0000b0 0c b4 30 3d bb 14 61 3d 42 70 6d bc a7 ab 4d 3d
       0.043140456 0.05495141 -0.014492096 0.05021253
0000c0 93 de 01 3d 89 27 78 3d f5 c7 e0 bd 9b da 2c 3d
       0.031706404 0.06058458 -0.10975639 0.042200666
0000d0 bf dc 8c 3c 10 8b 66 bd ea 04 ae 3d 86 93 74 3c
       0.017195104 -0.056284964 0.08497031 0.01492775
0000e0 6f 37 b0 bd 86 6d ad bc 6c 32 3c bd f8 22 fb 3c
       -0.08604323 -0.021170389 -0.045946524 0.030656323
0000f0 45 a6 c5 bc 67 dd ff 3d 1c 3e 60 bd 7b a4 9b bd
       -0.024127135 0.12493401 -0.054746732 -0.075997315
000100 2d 46 af 3d a5 45 4a bc 47 fe 69 3d dd 70 8b 3d
       0.08558307 -0.012345706 0.057127263 0.06808636
000110 67 93 8d bd 9e f9 3e 3d 63 d0 2f 3d aa e5 e0 3d
       -0.069128804 0.046624772 0.042923342 0.10981305
000120 bb 3f 44 bc 8e ad 82 bc 9f ef 05 bd d5 13 43 3c
       -0.011978085 -0.015951898 -0.032699224 0.011906584
000130 8b 4e 9e 3c 67 33 95 3c d3 c2 08 3d f6 da d8 3c
       0.019324562 0.018212987 0.033388924 0.026471596
000140 95 63 e7 bc 7d e7 2e bd 85 df a8 bd d9 30 94 3d
       -0.028245727 -0.042701233 -0.08245758 0.072358795
000150 03 92 3f 3c d8 56 82 bc 18 1e 37 3d bd b3 3c 3d
       0.011692527 -0.015910551 0.044706434 0.04606985
000160 67 a8 36 bd 2d 9a 88 bc ca 47 98 3c 7d cb e5 bd
       -0.044594195 -0.01667508 0.01858892 -0.11220453
000170 d1 f5 8f bc 4c 8e 0a bd 93 b1 70 bd a3 86 8c bd
       -0.01757327 -0.03382711 -0.058763098 -0.068616174
000180 4a 45 de bd b3 cf 2b 3d ac ff f0 bc ad 67 7c 3d
       -0.108530596 0.041946124 -0.029418789 0.06162231
000190 54 10 11 3e b8 b7 8d 3c 9c fc 8d bd 11 e8 9a bc
       0.14166385 0.017299518 -0.06932947 -0.018909486
0001a0 42 2b 95 bd 12 f8 c6 3c 69 10 2b bd 1e 18 7b bd
       -0.072836414 0.024288211 -0.041763697 -0.061302297
0001b0 66 f8 8c bd 92 76 55 3d f5 c5 8c 3d 52 b5 44 bc
       -0.06883316 0.05211503 0.06873695 -0.012006121
0001c0 18 de 04 3e 87 b2 80 bb 0b 9a 89 3d 03 69 d0 bd
       0.12975347 -0.003927532 0.067188345 -0.101762794
0001d0 af b5 c6 bb aa ec 6d 3c dc 73 42 3c bf 8c 8a 3b
       -0.006064139 0.014521757 0.011868443 0.004228204
0001e0 15 28 d5 3d 43 b3 cf bc b1 f5 d2 ba de 65 5f 3d
       0.10408036 -0.025354033 -0.001609495 0.054540507
0001f0 5d e6 38 bd 3d 30 6d 3d 3a ba 29 bc 07 72 f1 3d
       -0.045141567 0.05790733 -0.010359341 0.11789327
000200 a4 cf 57 3d cf de d7 bb 38 11 53 3d 5a 30 c9 bd
       0.052688256 -0.00658784 0.051530093 -0.098236755
000210 38 c5 32 bd 00 34 5a bc e8 b4 83 3d 25 6f 9a 3c
       -0.043645114 -0.013318062 0.064309895 0.018851826
000220 27 b0 8d bd 17 d3 8c bd 73 b8 ef 3a 89 92 a2 3c
       -0.06918364 -0.068762 0.0018289223 0.019845264
000230 09 7c c6 3d 50 20 00 3e c2 de 93 ba e2 62 49 bc
       0.096916266 0.12512326 -0.0011281597 -0.012291642
000240 62 89 fe 3c e8 f5 0a bd ba 3a a3 bd dc 12 1b bd
       0.031071369 -0.03392592 -0.079701856 -0.037859783
000250 f0 19 8c bd 0f fb 87 bd 55 78 8c bc b5 11 36 3a
       -0.06840885 -0.066396825 -0.017147223 0.00069453876
000260 72 e9 91 bd c7 dd e9 bc 55 a9 24 bd 2f 84 96 3c
       -0.07124604 -0.028548134 -0.04020055 0.018373577
000270 a6 bd 4d bd df 6f bf bc f0 26 e2 bc 9c 29 8b 3d
       -0.05022969 -0.023368774 -0.027606457 0.06795046
000280 ff d9 ef bc eb a6 f2 3c 85 6a 26 bd 27 61 9d bc
       -0.029278753 0.029620608 -0.04062893 -0.019211365
000290 3e 09 e5 bb c1 60 a0 3c f0 93 90 bd 0e 2b e8 3c
       -0.006989627 0.019577386 -0.07059467 0.028340843
0002a0 f2 2d 19 3e 3c 14 3c bd e5 98 df 3b 5b aa 7a bd
       0.14958933 -0.045917735 0.0068236464 -0.06119762
0002b0 74 5f 1b 3d 89 60 91 bd ac 42 a3 3c a6 2a 0b bd
       0.037932828 -0.07098491 0.019929253 -0.03397622
0002c0 85 fe 8d 3d c2 aa b3 3d 56 88 97 3d b1 a2 66 3c
       0.069333114 0.08772804 0.07399051 0.014076875
0002d0 70 c4 a0 3c 9d 61 9b 3c 3a 50 69 3d 46 c9 d5 bc
       0.019624919 0.018967444 0.056961276 -0.026096951
0002e0 f0 04 6d bd 71 2c d9 bc fb d5 32 3b cb 23 6f bc
       -0.057866037 -0.02651045 0.0027288187 -0.014595936
0002f0 34 a2 90 3c 55 ff b0 bd f1 9f 36 3d 00 2d 9f 3d
       0.01765547 -0.08642451 0.044586126 0.07772255
000300 13 75 01 3d 5b ae 7f 3d 77 4c 4d bd 10 62 9e 3d
       0.03160579 0.062422138 -0.05012175 0.07733548
000310 ab 28 a3 3c c4 7e 6f bd c2 f1 8b 3a fc 1c 2c bd
       0.019916853 -0.058470502 0.0010676908 -0.04201983
000320 43 e0 27 bc e5 b7 64 3d bf fb 1d ba b9 87 72 ba
       -0.010246339 0.055839438 -0.0006026588 -0.00092517916
000330 f7 c7 99 bc a7 a7 8b bd 54 a5 93 bc 4f 69 aa 3d
       -0.018772108 -0.068190865 -0.01802317 0.08320867
000340 fb be 0b 3b 98 db 76 3d cd 6f 34 3e 9d 76 75 bc
       0.002132355 0.060268015 0.17620774 -0.014981893
000350 7a e4 3a 3e 88 23 e2 3b e1 a5 d4 ba da e6 ab 3d
       0.1825122 0.0069012083 -0.0016223752 0.08393641
000360 32 1a 5d bd be 1d d1 3d 9c ce 85 3d 63 3c 9d bd
       -0.05398006 0.10210751 0.06533548 -0.076775335
000370 ee 80 dd bc 5c 95 90 3d f0 16 46 3c 73 9d 33 3d
       -0.027039018 0.07059738 0.01209043 0.043851327
000380 43 d5 51 3d 72 84 6c bb 3d 10 61 bd ac 1d 3a bd
       0.051228773 -0.0036089686 -0.054947127 -0.045438454
000390 fb a1 b5 3c a9 83 55 3e 42 e0 f5 bc 67 b0 0c bd
       0.022171965 0.20851006 -0.030014161 -0.034347918
0003a0 57 0f 17 bd a4 25 bb bb 0a 2c 24 3d ab fb a3 bd
       -0.036879864 -0.005711274 0.04008106 -0.08006986
0003b0 25 7c 05 3e 78 90 09 3b 36 a2 e1 3c c0 9f 6e bc
       0.13035639 0.002099065 0.027543169 -0.014564455
0003c0 50 62 44 3d aa 27 04 3e de d7 81 bb b9 64 d4 bd
       0.04794532 0.12905756 -0.003962501 -0.10370774
0003d0 5c e9 81 bd d1 d1 a9 bd e7 00 96 3d 5b ef ee 3c
       -0.06343338 -0.082919724 0.07324391 0.029166868
0003e0 ff 42 b1 3d 22 eb 6b 3e e3 2e b9 3d fb d7 7c 3b
       0.086553566 0.23038915 0.09042146 0.0038580883
0003f0 7f 0c 6d 3d ea f0 8e bd cf 2e b1 3d 8f f2 ce bd
       0.057873245 -0.069795445 0.08651506 -0.10104858

l2.bias f4 [100]
000000 1a 3f 16 bb b5 e6 0a bd 73 e0 41 3d bf 6f 64 bd
       -0.0022925795 -0.033911426 0.047333192 -0.055770632
000010 43 35 ff 3c 32 b0 26 3d 3e 80 ba bd f0 83 96 bd
       0.031153327 0.040695377 -0.091064915 -0.07349384
000020 1b 98 28 3d 2b 97 35 bd c6 1a 58 bd 15 cc 82 ba
       0.041160684 -0.044333618 -0.05275991 -0.0009979034
000030 7b 01 14 3d d2 f6 49 3b d9 dc 7a 3d 20 4d 2b bd
       0.036134224 0.0030817282 0.061245773 -0.0418216
000040 b6 e2 10 3d be d7 ba bc 27 be 08 3e 40 79 2d bd
       0.03537246 -0.022807952 0.13353787 -0.04235196
000050 f9 f1 37 3d eb 70 96 3b 46 d1 c0 3d 79 99 06 3d
       0.044908497 0.0045910976 0.09414916 0.032861207
000060 8a 52 ce 3b 6a f7 8f 3d c0 bf 98 bd c3 b8 4f 3d
       0.0062964605 0.07029612 -0.074584484 0.050713312
000070 6b d0 c5 bc 27 f4 ce 3d 41 06 53 3c ed 04 49 3d
       -0.024147233 0.10105162 0.012879909 0.049076963
000080 14 3e 7b bc d4 59 e4 3c d5 9b 00 3d 42 a2 81 bd
       -0.015334625 0.027874865 0.031398613 -0.06329776
000090 53 53 c8 bc f1 65 1f bc a5 0f 48 3d 59 f6 9c 3c
       -0.024453795 -0.009728895 0.048843045 0.019160436
0000a0 91 e0 20 bd 28 ed 22 bd d6 63 79 3d b5 57 48 3d
       -0.039276663 -0.03977695 0.060886227 0.04891177
0000b0 67 10 5b bd b5 17 0d bd 1d 12 a5 bd a6 7f 09 bd
       -0.05348244 -0.034446437 -0.080600955 -0.033569
0000c0 2c bd 59 bd 3a ec d8 3c 19 7d 58 3d 0c 03 30 3d
       -0.053158924 0.02647983 0.052853677 0.042971656
0000d0 17 e3 55 3d 57 92 d0 3c 87 84 03 bd bd 8d bd 3d
       0.052218523 0.025460405 -0.03210881 0.0925555
0000e0 c3 03 98 bc 71 11 b3 bc 6b 34 8b 3c 7c 9e ff 3c
       -0.018556481 -0.021858903 0.016992768 0.0312035
0000f0 a1 6e 92 3d 7a 4a f4 bc 5a e3 2a 3c cb c7 9c 3c
       0.07150007 -0.02982067 0.010430181 0.019138237
000100 fd 08 47 3c 0d d5 82 3d e0 7a 01 bd 7b e3 48 3d
       0.012148139 0.063882925 -0.031611323 0.049045067
000110 f4 ad c8 bc b7 fa 03 3d 49 39 7b bd 8f 65 53 bd
       -0.02449701 0.032221522 -0.06133393 -0.051610526
000120 2b 50 1c bd 12 90 fc bc 20 8f 77 bc 73 92 d3 3d
       -0.03816239 -0.030830417 -0.015109807 0.10330667
000130 1d 2a b4 bc 31 85 0e bc f0 ea 14 3d e6 c3 88 3c
       -0.021992737 -0.0086987475 0.036356866 0.016694974
000140 2c f4 09 3e 0a a0 dd ba c4 13 1c bd e4 ae 0f 3d
       0.1347205 -0.0016908657 -0.038104787 0.035078898
000150 36 14 29 3d 24 7b 27 3e c9 54 ef 3c bc 13 d8 bb
       0.04127904 0.16355568 0.029215233 -0.0065941494
000160 e3 8b 0d bd ec 71 75 bd 4e de 5f 3d a2 bf 24 bd
       -0.034557234 -0.059923097 0.054655366 -0.040221818
000170 27 f8 1b bc 26 7f 63 3d 8e af e9 3b 42 d1 1f 3d
       -0.009519613 0.05554118 0.0071315235 0.039017923
000180 a2 0e 61 3d 65 00 85 3d 8f 1c a3 3b da c0 79 bb
       0.054945596 0.06494216 0.0049777697 -0.0038109333

bn10.weight f4 [10]
000000 24 21 7c 3f 28 ff 78 3f 66 13 51 3f 52 96 63 3f
       0.9848807 0.9726434 0.81670225 0.88901246
000010 d5 f1 b7 3f 12 cf 71 3f 9c fc 54 3f 7c 63 8a 3f
       1.4370676 0.9445659 0.8319795 1.081161
000020 a2 fb f1 3f 79 ed 80 3f
       1.8904917 1.0072471

bn10.bias f4 [10]
000000 fc ac a1 bc 41 16 a1 3e a0 7e ab bd cf a6 70 be
       -0.019735806 0.3146229 -0.08373761 -0.23501132
000010 1f 9a bc 3e c7 4b b7 be de f8 f7 3d bf d6 f5 bd
       0.36836335 -0.358 0.121080145 -0.1200385
000020 c2 c4 df 3e 1d 75 0c bc
       0.43704802 -0.008572844

bn10.running_mean f4 [10]
000000 d8 09 5c bc b7 29 4b bd 0e 82 37 bd 98 8c 2d bc
       -0.013430081 -0.04960033 -0.044801764 -0.010592602
000010 35 88 70 be 1e 28 48 3e e8 50 31 bd 91 1f dc bc
       -0.23489459 0.19546553 -0.04329005 -0.02687052
000020 75 0c 81 be 7e 23 9e bc
       -0.25204816 -0.019304033

bn10.running_var f4 [10]
000000 dc 99 46 3e e3 a6 73 3e cb 19 97 3d 4c ef 2d 3e
       0.1939463 0.23794131 0.073779665 0.16985816
000010 0b 81 82 3e de b0 3b 3e 81 21 e8 3d 4a f1 85 3e
       0.25489077 0.18329188 0.11334515 0.2616065
000020 dc 34 91 3e 4e 49 81 3e
       0.2836064 0.2525124

bn28.weight f4 [28]
000000 06 c0 91 3f 21 2d aa 3f bd 0a 72 3f b6 a0 81 3f
       1.1386726 1.3295022 0.94547635 1.012717
000010 cc f5 a1 3f 55 2c 5c 3f 55 da 84 3f 2d 56 8a 3f
       1.2653136 0.86005145 1.037913 1.0807549
000020 f5 f4 9e 3f 90 b5 62 3f 24 6f 84 3f 87 e1 71 3f
       1.2418505 0.8855829 1.0346417 0.9448475
000030 d1 23 a8 3f fa 16 98 3f 2a df 51 3f 21 3f 94 3f
       1.313593 1.1882012 0.81981146 1.1581765
000040 aa 9a 3a 3f 32 f0 6f 3f 13 11 76 3f 47 13 3a 3f
       0.7289225 0.93725884 0.96119803 0.72685665
000050 5b 32 68 3f 0b c4 59 3f 35 fd 9c 3f b2 ff 67 3f
       0.90701836 0.8506476 1.2264773 0.90624535
000060 b9 04 8a 3f 93 4f 84 3f 9a 4f 92 3f e9 2e 87 3f
       1.0782691 1.0336784 1.1430542 1.0561191

bn28.bias f4 [28]
000000 7c 9c b3 3b 12 b3 7a bd a2 82 a2 bd 28 d8 89 be
       0.005481301 -0.06120593 -0.079350725 -0.26922727
000010 8d d8 1a be a9 ef 2c be 39 c9 bf bd ed e1 1c be
       -0.1512167 -0.16888298 -0.09364552 -0.15320559
000020 c8 51 e1 bd 5e 67 e3 be be a9 e5 3d f4 71 98 be
       -0.11001927 -0.444148 0.112140164 -0.2977444
000030 2c 2f c8 bd 90 b2 6a be fb 0e 95 be d9 fc 1f be
       -0.09774622 -0.22919679 -0.29112992 -0.15623797
000040 84 6b 26 bf 03 6a 77 be 64 1e 7f bd 1d 7b b3 be
       -0.65007806 -0.24161534 -0.062284842 -0.35054865
000050 52 56 d7 be 99 40 99 bc 59 dd a9 3c 28 94 b5 3c
       -0.42058045 -0.01870756 0.02073543 0.022165373
000060 35 74 91 be 27 26 92 bd e1 48 f5 bd 8b 08 c6 bd
       -0.2840897 -0.07136183 -0.11976791 -0.09669598

bn28.running_mean f4 [28]
000000 59 fb 1c bf d7 63 09 3d 54 fe de bf 3f 37 f9 bf
       -0.61321026 0.03354248 -1.7421365 -1.9469985
000010 15 3b cd 3f fc 05 0f be 20 0b c2 be 31 a7 17 c0
       1.6033655 -0.13967127 -0.37899113 -2.3695796
000020 e5 e3 e7 bf b8 4d 84 3f f0 89 79 be d0 49 fa bf
       -1.8116423 1.0336218 -0.24369025 -1.9553776
000030 30 16 0c bf 1a 00 80 bf 2e 33 c4 3e 22 61 45 bf
       -0.54721355 -1.0000031 0.38320297 -0.7710134
000040 1f a4 83 be 6c 92 f4 bf 2c 88 59 be d4 16 41 be
       -0.25711152 -1.9107184 -0.21243352 -0.18856364
000050 dc 9b ca bf 64 6b cf 3f b1 d1 20 be d7 86 18 c0
       -1.5828815 1.6204648 -0.15704991 -2.38323
000060 6d 98 98 bf 99 b7 a5 bf 45 ee 42 3d 31 5c 37 c0
       -1.1921517 -1.2946655 0.047590513 -2.865002

bn28.running_var f4 [28]
000000 86 fa 83 40 91 58 bf 40 bb 54 68 40 b5 86 83 40
       4.1243315 5.9795613 3.6301715 4.1101937
000010 a4 37 da 40 40 09 7d 40 62 81 74 40 6c 4a a1 40
       6.819292 3.9536896 3.820397 5.0403347
000020 dd 6a b9 40 1f ae aa 40 27 f8 3b 40 f3 46 6e 40
       5.794295 5.333755 2.937021 3.7230804
000030 0c 39 55 40 c7 dd 97 40 88 40 64 40 a6 b3 90 40
       3.3316069 4.7458224 3.5664387 4.5219297
000040 82 a4 17 40 43 34 ab 40 8b 27 95 40 14 bc 33 40
       2.3694158 5.3501296 4.661077 2.8083544
000050 25 63 61 40 1f 01 99 40 94 ee 72 40 0b 85 80 40
       3.5216763 4.781387 3.7958117 4.0162406
000060 ad 55 a1 40 4c 77 5c 40 3c 4c 53 40 8e d5 7c 40
       5.0417085 3.4447813 3.301528 3.9505343

bn28_1.weight f4 [28]
000000 51 ec de 3f f1 67 01 40 cb f4 e9 3f 40 dd ee 3f
       1.7415868 2.021969 1.827783 1.866127
000010 c7 c0 e7 3f 6b ae d7 3f 1b 7f ca 3f 4a 74 d7 3f
       1.8105706 1.6850103 1.582004 1.6832364
000020 bb 1c d7 3f ef 10 e6 3f bf 57 d1 3f c5 4d e5 3f
       1.6805643 1.7973918 1.6354903 1.7914358
000030 93 2e eb 3f 92 d0 d7 3f 88 db dc 3f e7 f8 d6 3f
       1.8373588 1.6860526 1.7254496 1.6794709
000040 85 f8 e6 3f 95 5f c4 3f 3c e0 d5 3f b5 40 dc 3f
       1.8044592 1.5341669 1.6709056 1.7207247
000050 86 05 dc 3f 97 b3 f2 3f 31 a5 d1 3f d5 4e e6 3f
       1.7189186 1.8961056 1.6378537 1.7992808
000060 09 74 f3 3f 34 a5 f3 3f 0d 98 e9 3f a3 14 da 3f
       1.9019786 1.9034791 1.8249527 1.7037548

bn28_1.bias f4 [28]
000000 e2 79 a2 be da 2f a8 bd fc 40 c9 be 47 37 9a be
       -0.31733614 -0.08212252 -0.39307392 -0.30120298
000010 6a 98 c0 be b8 f1 85 be ef 5b 74 be d0 cd e4 bc
       -0.37616283 -0.2616098 -0.23863195 -0.02793017
000020 8d ec 8a be bf ab b7 bd e0 b4 9a be ff b6 58 be
       -0.271336 -0.08968305 -0.30216122 -0.21163557
000030 00 0f 75 be 24 c1 48 be 63 c3 36 be 9a dd 2a be
       -0.23931503 -0.19604927 -0.17847972 -0.16686097
000040 12 ac 0b bf 0c d2 73 be ab 20 7a be dc 51 1c 3c
       -0.54559433 -0.23810595 -0.24426524 0.009541001
000050 3f 3f a7 be d4 ec ed be 41 a3 cb be 26 4a 37 be
       -0.3266544 -0.46469748 -0.3977299 -0.17899379
000060 3c 85 6d bd 61 ad 77 be 21 cb cd be 9a 15 4f be
       -0.05798839 -0.24187233 -0.40194038 -0.20223084

bn28_1.running_mean f4 [28]
000000 91 c0 ce 3f 6f f1 04 40 b4 b1 8c be 4f 13 92 bf
       1.6152517 2.077236 -0.27479327 -1.1412143
000010 26 d0 ff 3c 49 61 f1 bf f7 25 e1 3f c4 89 c0 be
       0.031227183 -1.8857814 1.7589711 -0.37605107
000020 5b d2 8e bf 68 0c e2 3f 6c 79 91 3f b8 ae e1 3e
       -1.1157945 1.7660036 1.136518 0.44078612
000030 ee ac 9b bf 54 d6 16 40 f5 d5 a7 3e c5 a6 71 3d
       -1.2162149 2.3568316 0.32780424 0.058996934
000040 0b 73 60 3f 11 f8 05 3f f2 a4 8e 3f 7c ee 88 3f
       0.8767554 0.52331644 1.1144087 1.069778
000050 e5 33 e8 3e f1 6d b1 bf 7e ea 57 40 34 b2 40 bd
       0.45352092 -1.3861676 3.3736873 -0.047044948
000060 6f 81 d9 3e ec 1c 98 3e f1 99 50 3e d4 13 09 3f
       0.42481562 0.29709566 0.20371224 0.5354588

bn28_1.running_var f4 [28]
000000 1a 7f c9 40 9b e1 3c 41 1c 27 f5 40 90 f6 c5 40
       6.2967653 11.805079 7.661024 6.186348
000010 e7 85 cf 40 b2 7f 86 40 e5 56 9b 40 92 b6 84 40
       6.4850955 4.203088 4.8543572 4.1472864
000020 77 80 8c 40 b9 93 b2 40 b4 d2 71 40 55 a8 bf 40
       4.3906817 5.5805326 3.7784853 5.9892983
000030 4d ca 00 41 ee 8a fb 40 b5 12 9d 40 96 e1 9d 40
       8.04939 7.860709 4.9085336 4.9337873
000040 e2 8d dc 40 ac 19 57 40 34 8c f1 40 22 4c bb 40
       6.8923197 3.360942 7.5483646 5.8530436
000050 b5 f9 cf 40 85 42 04 41 d6 37 9f 40 2c f6 06 41
       6.499232 8.26624 4.975566 8.435101
000060 f2 45 ce 40 b9 28 2a 41 b7 78 c8 40 bc cf 91 40
       6.4460382 10.634942 6.2647357 4.556608
