mod-lx1-100-1.pt (torch, 283957 bytes, 19 tensors)

c1.weight f4 [10, 1, 3, 3]
00000000: dfed b03e f07f e9be ce9e 69be 53e0 9f3e
00000010: 83fd 29bd 167a d2be 2aa6 353e 6f29 943e
00000020: 5f64 81be f9ee 643e c37a 6d3e 3d20 8c3e
00000030: ab60 923d a439 173e 2e3b d23d 2ced 34bd
00000040: 86b1 0cbf 11ee e7be 2b69 02bf 67e6 de3e
00000050: e082 0bbd b4a4 843e a564 963e 8013 6abe
00000060: b2f5 463e 70cf 0d3c c13a 77be ec43 12be
00000070: 9918 ce3e 9aed a33e e8ee ebbe a1c5 e7be
00000080: edf4 183e 81a0 4d3d 679e 8cbe 87ac 1dbe
00000090: ba46 883e 43a4 c5be 10de 47be dec8 5d3c
000000a0: 1e10 903e ca11 eb3e 8af9 9b3e 1bc4 08be
000000b0: 317a afbe b597 5c3e b6bc 4d3e c9ba f13d
000000c0: 5c14 fa3d a999 053e 4c91 c13b e7f2 583e
000000d0: 2ae6 c33e fe2c e63d 5165 3d3e 0806 f93d
000000e0: 9f42 683e e973 d33d 0f0a efbd c2ff cf3e
000000f0: 5f78 8bbe fa98 27be b93b 183d 055b 50bd
00000100: 2ebf 713e 9212 7b3e a82a 74bd 59b2 94bd
00000110: 7c07 bebe 38a2 d2be 5917 78be cd1a dcbd
00000120: 25b4 44bd 9834 9fbe a8ef e8be c55d 8d3e
00000130: 2192 153e ec0c 07be 13fa a03d cfb6 bf3e
00000140: 5150 aa3e c97b 50be 0a8b 69be 2158 ad3e
00000150: 1ea4 22be 75b8 b23e 0b34 04bd 0ab6 a1be
00000160: 9ef0 64be 6534 a2be
0.3455648 -0.4560542 -0.22814485 0.31225833 -0.041501533 -0.4110877 0.17739168 0.2893786
-0.2527189 0.22356786 0.23191361 0.27368346 0.07147344 0.14768082 0.10265194 -0.044171497
-0.5495838 -0.45298818 -0.50941724 0.43535158 -0.03406036 0.2590691 0.2937366 -0.22859001
0.19429663 0.008655414 -0.24143507 -0.14283723 0.40253142 0.32017213 -0.46080709 -0.45267966
0.14937182 0.050201897 -0.274646 -0.15397845 0.2661646 -0.38601884 -0.19518304 0.01353666
0.28137296 0.4591201 0.3046382 -0.13356058 -0.34272912 0.21542247 0.20091519 0.118032046
0.122109145 0.13046898 0.0059072133 0.2118641 0.3826154 0.1123905 0.1849568 0.121593535
0.22681664 0.103248425 -0.116718404 0.40624815 -0.27240273 -0.1636695 0.03716633 -0.050868053
0.23608086 0.24518803 -0.059610993 -0.072605796 -0.37115085 -0.41139388 -0.24227656 -0.10747299
-0.04802336 -0.31094813 -0.45495343 0.27610603 0.14606525 -0.13188523 0.07860198 0.3744416
0.33264402 -0.2035972 -0.22806945 0.338563 -0.15882918 0.34906355 -0.032276195 -0.31584197
-0.22357413 -0.316806

c2.weight f4 [28, 10, 3, 3]
00000000: 0fb8 6ebd 5154 19be 9c55 4bbc 49fd c5bd
00000010: dfb4 d23b 3c70 6e3d 5704 53bd 0fb0 12be
00000020: 9c33 e73d 8ba7 1d3c e35e 1b3d 4f71 273d
00000030: f826 5abd de06 6dbd 912f 46be 0e86 08be
00000040: 2ab6 abbd ce80 c6bd 9532 403d c269 833d
00000050: 22ea 4bbc 667d b83c 5485 923d d57f 223e
00000060: a25a cdbb c3a3 eebc 153f 4cbd da56 8f3d
00000070: ce6a 8f3d f006 a3bd cf28 9bbd 34c0 613c
00000080: a124 f4bd e755 f5bd b8fe 60bc 8ebd 89bd
00000090: 93ed 633d 14a6 a23d 438b 38bc 4a66 bd3d
000000a0: ef41 9ebc bade 78bd ce2f a2bd cfbe 3dbd
000000b0: f1e1 66be 8763 653e 5778 c0bd 36e1 f3bc
000000c0: 8073 1a3e ce19 a73d e07b 943d ba6b 023e
000000d0: 2a8d 893d 0e39 0c3e 1cc9 f63b e8b3 e7bd
000000e0: 0099 0dbe 5b03 8b3d 1b23 0d3d 6028 c73d
000000f0: ba00 da3d 9b40 7bbd a738 043e b934 183d
00000100: 9e56 0c3d 3bd4 6ebc 5230 43bc 3a83 c13d
00000110: b9c5 1c3e 37b8 5bbb e4c4 38be b306 1cbb
00000120: b4b4 bb3d 769a 5dbc 29e3 a53e 91a4 4abd
00000130: 3b2c 3c3e 8e21 983c 486f ccbd c0f1 ed3c
00000140: 42a2 ecbd 7774 323e 56bf ffbd 1f61 9abd
00000150: 4724 e8bc 2829 80bc 6c30 30bd 5e4f 763d
00000160: 8781 bc3d 2fff 583d 1ffb 16be d359 e5bd
00000170: 3476 96bd 123d 78bd dee6 00bc d2a1 b53b
00000180: faef 81bd 1a18 d23d 916a c63d 3951 d7bd
00000190: b93f bdbd 536e 2d3d 0c63 91bd 8c4c 0fbd
000001a0: a876 e6bd 5c30 0dbd 9edb fbbc fdd2 ee3d
000001b0: 320f ffbc 92d6 4ebd c304 2c3d 6f4f 61bd
000001c0: ca39 8abd 7f10 0dbe fa56 e2ba 2a6c 5f3c
000001d0: 8e39 96bd 1923 aebd 8dfe aabd 2639 29be
000001e0: 6b6e babc 1245 053e a2fc 28bc 608e a93c
000001f0: 71dc aa3c bbc8 39bd 1612 e8bd b9d8 a6bc
00000200: 517b ecbd 1716 ce3d a72b 433d 544e 43bd
00000210: ff3a e73a 450e 213d 7451 363d d0cd 413d
00000220: c4b6 af3c 7932 71bd 1825 12be fc49 86bc
00000230: e578 33bd 448b c6bc 3d3b 05be 9790 48bd
00000240: dba4 eb3d 76ec d43d 616e b93d 8ab5 afbd
00000250: e3bb 433d 4928 c1bd 197d 76bd c72b 673c
00000260: e312 a9bd 6a2e 29be 6f34 96bd fab2 6d3d
00000270: 8814 4c3d 4c41 25bd 950c 82bd 4e58 6abd
00000280: 3f29 25bd bc68 0e3d 5e73 9b3d cb34 6dbd
00000290: c372 013e fed2 5bbc fb78 dd3d 2a0c f9bb
000002a0: d047 0d3e b2ed ccbd 4c8e 84bd 66a5 88be
000002b0: 3f2d a33b 446a 01b9 ddd5 f5bd 99a9 e5bd
000002c0: de9c 1c3d be5d abbd 171a 3c3c 338a 8fbd
000002d0: 8145 253c c0c4 3cbe 79e5 63bd 3dad bbbc
000002e0: 5638 13be dbf3 03bd ecc3 543d 8569 10bc
000002f0: 70f3 043e 3d81 4dbe 0b3a 75bd 9314 9fbd
00000300: 754a e4bd 8f77 003c d430 c33d 263b a4bd
00000310: d09f e3bd 2c08 c5bd 4078 ebbd dcc2 4b3e
00000320: 5cfc 5c3d b82e 32bc ca84 013d e04a f33d
00000330: ce15 9abd 4494 303d 5e4d 993d 0a98 0b3e
00000340: 0b43 b8bc 7e10 84bd b68f bcbd 9e1b e9bd
00000350: 67f7 5cbd 412c afbd fa69 7f3d 44f0 213e
00000360: 223d 09be 80d2 273d 475b 04bc 2be6 1d3d
00000370: 53b1 913d 08a5 ec3c 3b7e e8bd cb6c 7cbd
00000380: 8081 293e c6d9 22bd 4757 6dbd 313a fc3d
00000390: 0b14 f33c 00a3 e23d e37d c33c 84a7 f63d
000003a0: 3d5f 02bb 3b43 873a 963e babc f19e 87bd
000003b0: 66e1 853d d411 2d3c ed7c 90bb 4b7b d53d
000003c0: bb80 4e3d 864d c03b 7d64 993c 746d 9fbd
000003d0: 98d5 09be edc9 163e f381 09bd 18af 643d
000003e0: 9690 8f3d 93a6 d1bd f48e e6bc 17de da3c
000003f0: d982 e23d 874f 08be 8aef 6d3d ea70 503d
-0.058281 -0.1497357 -0.012410548 -0.09667451 0.006430253 0.058212504 -0.05151781 -0.14324974
0.112891406 0.009622465 0.037932288 0.040879544 -0.05325982 -0.057867877 -0.19354083 -0.13332388
-0.083843544 -0.09692536 0.04692324 0.06416656 -0.012445958 0.022520732 0.071543366 0.15869077
-0.006266908 -0.029130822 -0.049864847 0.069989875 0.07002793 -0.079603076 -0.07576143 0.013778735
-0.11921049 -0.11979275 -0.013732605 -0.06725608 0.05564649 0.07941833 -0.011263671 0.09248026
-0.019318549 -0.060759284 -0.07919274 -0.046324547 -0.22547127 0.22401248 -0.09397953 -0.029770475
0.15083122 0.08159219 0.0725019 0.12736407 0.06716378 0.1369364 0.0075312983 -0.11313611
-0.13827896 0.067877494 0.034457307 0.09724498 0.1064467 -0.06134091 0.12912236 0.037159655
0.034262292 -0.014576967 -0.011913376 0.094488576 0.153098 -0.0033526549 -0.18043858 -0.0023807704
0.09165326 -0.013525596 0.32399872 -0.04947335 0.18376248 0.018570688 -0.09982163 0.02904594
-0.11554386 0.1742724 -0.12487666 -0.07538056 -0.02833761 -0.015644625 -0.04301493 0.060134284
0.09204393 0.052977737 -0.14744233 -0.11198773 -0.07346764 -0.060605116 -0.007867543 0.005542972
-0.063446 0.10258503 0.09688295 -0.10513539 -0.0924067 0.04234154 -0.0709897 -0.03498511
-0.11253101 -0.034469947 -0.03074437 0.116613366 -0.031135175 -0.0504976 0.04199673 -0.055007394
-0.06749304 -0.13775824 -0.0017268353 0.013636628 -0.073351964 -0.08502788 -0.08349333 -0.16525707
-0.02275773 0.1301463 -0.010314139 0.020697773 0.020857068 -0.045357447 -0.113315746 -0.020367013
-0.11546958 0.10062807 0.047649052 -0.04768212 0.0017641484 0.03932025 0.044511274 0.04731542
0.021449454 -0.058886025 -0.14271963 -0.0163927 -0.043816466 -0.024236329 -0.13010879 -0.048966017
0.11506053 0.10396664 0.09054256 -0.08579548 0.047786605 -0.09431512 -0.060177896 0.014109558
-0.082555555 -0.16521612 -0.0733422 0.058032013 0.049824268 -0.040345475 -0.06350056 -0.05721312
-0.04032254 0.03476785 0.07590364 -0.057911675 0.12641434 -0.013417004 0.10814091 -0.007600327
0.13796926 -0.10006274 -0.064724535 -0.2668869 0.004979759 -0.00012341986 -0.12003682 -0.11213989
0.038235538 -0.08367489 0.01148083 -0.07008781 0.010087372 -0.18434429 -0.055638764 -0.022909755
-0.14376959 -0.03221498 0.05194466 -0.00881422 0.12983489 -0.20068832 -0.059869807 -0.07767596
-0.11147014 0.007841005 0.095307976 -0.08019094 -0.11114466 -0.09620699 -0.11497545 0.19898552
0.053951606 -0.010875396 0.03162078 0.11879516 -0.0752369 0.043110147 0.0748546 0.13632217
-0.022492906 -0.06448458 -0.09207098 -0.11382221 -0.05394688 -0.08553363 0.062356927 0.1581431
-0.13402227 0.040972233 -0.008078403 0.038549583 0.071139 0.028887287 -0.113522016 -0.06162719
0.16553307 -0.039758466 -0.057944562 0.12315787 0.029672643 0.11066246 0.023863738 0.1204367
-0.0019893192 0.0010319719 -0.022734921 -0.066221125 0.06537132 0.010563333 -0.0044094236 0.10423907
0.050415736 0.0058686165 0.018724674 -0.077845484 -0.13460386 0.14725466 -0.033571195 0.055831045
0.070099995 -0.1023685 -0.028144337 0.026717229 0.110601135 -0.13311587 0.05808977 0.050888933

c3.weight f4 [28, 28, 3, 3]
00000000: 6130 d53c 90aa 813d 1094 a7ba 89f0 853d
00000010: d153 8d3c dcb0 953d 2f3a 263c 3565 20bd
00000020: 9cb2 85bc fb63 2abb bbb3 63bc a45e 8c3d
00000030: 66a4 a3bb aaec b8bc 2f91 9dbd e87b 1e3d
00000040: 25d3 c4bd c617 17be d401 c93c d77b b23d
00000050: 86f7 ce3d 399b dc3d 48d0 563d 3c2c d0bd
00000060: ffc0 603d c6e5 b4bc ffcc d2bd 95c7 06bd
00000070: 8665 9f3d c3aa 3a3c 0e22 1d3d 23a3 e7bb
00000080: 9eef 653d 97b4 67bb 69e1 a6bc b1e7 1bbb
00000090: 899e 473d bd1a b33d 4769 79bc 8a55 a03d
000000a0: 1c7e 803d daf7 a2bc 0b58 2dbc 60d7 153d
000000b0: 3d4f 62bd a31c 0abd 5926 01bd 9c10 103c
000000c0: a20d ecbd 3d4e 9a3d 3ef8 b5bd 8853 c03c
000000d0: 0fc9 71bd b79c 203d 5bd7 d7bd ec27 e9bd
000000e0: 17c2 08bd f354 ce3d f96f 85bd 4060 72bd
000000f0: aada d03d 3e7b e8bc 91f4 a33d 5984 0abd
00000100: 79d2 ddbd a22e d1bc b446 943d 6ba2 213d
00000110: 9965 ae3d 3aa2 a6bd 68be 663d 01f1 343d
00000120: b866 543d 9b43 00be 98b8 6e3d a4d9 e2bc
00000130: b676 0cbe ba52 18be 3ed1 d0bc 496a 173d
00000140: c17b a7bc 69b9 23bd f7e8 dc3c 692a 8fb9
00000150: cc5d 11be 4f79 b6bd eed6 04bd 3e65 1e3b
00000160: 464a 5b3d 5aa6 cabd 46fa b63c 1d9e 513b
00000170: cc00 30ba a731 403d db2b 94bc 810a 9abc
00000180: 1cc8 09bd 5fb3 c83d ce46 02be b0ce 7c3d
00000190: 4179 823d dca8 8dbb 0121 c1bc c2f0 e53d
000001a0: 7f33 6dbd bcc6 db3d c24e b63d 6b76 8b3d
000001b0: 2192 123c f8e6 3c3e caf7 43bd 6042 2a3d
000001c0: 2d58 e1bc 0026 ad3b b74d 323d 06e3 853d
000001d0: fb8d d4bb 0d8b b6bd 25df c0bd b001 003d
000001e0: 0b8b d43d c078 a9bc 58c2 94bd 0785 333c
000001f0: 1642 ae3d 54eb 9e3c d75e 29bd df31 e73d
00000200: 2e53 923b af1b 893c 5c86 06bd ad09 29bc
00000210: 973c b0bd 7dc7 0c3d 6245 00bd 7b90 5bbd
00000220: 86a2 b33d 0c03 71bd d753 613c 8b34 e3bc
00000230: 852b 8fbd dbdc 89bd 4dc3 91bd 6ffd 753b
00000240: 7ba3 a0bc 5e1f 85bd dee2 56bd 87b6 c53b
00000250: 80cb ae3c 1321 a43b 433a 913c e4cd 383d
00000260: 2ff1 483d 4349 05bd 0f1f a83c 91c2 c9bb
00000270: aafe ba3b 9a53 9bbd 46e6 88bd babc 11bc
00000280: e2ac 89bd b611 04bc e070 99bc a023 19be
00000290: c184 00be c0aa 153e cdbb 093e 3bd0 213e
000002a0: 8c6d 563d 6dfb 23bd af2d 843c a77e 893c
000002b0: add0 59bd a01f 4cbd 3020 003d 816c 943c
000002c0: 499d edbc 38cb 57be ca79 3abd 25af bc3c
000002d0: 6b14 84bd ee0b eb3c 9c5c df3b 0cd4 01be
000002e0: 0a50 06bd f538 5dbd 84cf 67bc af97 e4bb
000002f0: 03be 283e b65f 40bd ad80 fdbd a46c 083d
00000300: 5ab6 fabd 0006 1bbe c419 6f3d 2bd7 cabc
00000310: c600 8fbd df52 9c3c c3e9 d8bc 33b1 2a3b
00000320: 6a89 f53d bada 0dbd cfb2 81bd fe05 5bbc
00000330: 2a11 583d cc04 7a3d 2d9e 743c b94d efba
00000340: 1bfe 363d 3320 9a3d 1e74 50be 5371 833d
00000350: b5f2 093d 9f21 b4bc 0ded 0b3e 51e3 a4bc
00000360: 3859 a5bd 3cae b93b 3bb5 98bd 4adb 08bd
00000370: 1a3d b8bd ccc8 d7bc 9027 a23d 5609 9fbb
00000380: fc11 52bc b103 68bb f2d2 93bd 76cc 5c3d
00000390: 1772 c83c d067 093e 6622 483c 31f6 053d
000003a0: ff12 1638 6fbd c23c 0d2f 523d b4cc fa3d
000003b0: adca cf3c 99f8 34bd a520 2cbd f98d 363c
000003c0: cb06 e4bd 92c9 93bd bcd7 80bd 1a02 d93a
000003d0: 19ce 00bd 8a4d c1bc 6e6c e73d 312f f23c
000003e0: 1d01 683d 48c6 b93d c035 cabd 4b0d 1e3d
000003f0: e454 a33d 6b18 5b3d c0fd 38bc 070c 7e3d
0.026024045 0.0633136 -0.0012785215 0.06540019 0.01725188 0.07309124 0.010145708 -0.03915902
-0.01632052 -0.0025999534 -0.013897832 0.06853989 -0.004993963 -0.022573788 -0.07693707 0.038692385
-0.09610585 -0.14755163 0.024537005 0.08715027 0.10105805 0.10771794 0.052444726 -0.10164687
0.054871555 -0.02208222 -0.10293006 -0.03290518 0.07783036 0.011393252 0.038362555 -0.007069008
0.05613672 -0.0035355443 -0.020371156 -0.0023789222 0.048735175 0.08745334 -0.015222854 0.07828815
0.062740535 -0.019893575 -0.010580073 0.03658235 -0.05525135 -0.033718716 -0.03153071 0.0087930225
-0.11526038 0.07534454 -0.08885239 0.02347733 -0.059029635 0.039211955 -0.10539123 -0.113845676
-0.033388223 0.100747965 -0.06515498 -0.059173822 0.10197957 -0.028379079 0.08005632 -0.033817623
-0.1083116 -0.025534932 0.07240048 0.039461534 0.08515472 -0.08136411 0.05633393 0.04417515
0.051855773 -0.1252579 0.05828151 -0.02769167 -0.1371716 -0.14875308 -0.0254904 0.036966596
-0.020444753 -0.039971743 0.026966555 -0.00027306683 -0.14195937 -0.089098565 -0.032431535 0.0024169232
0.05353763 -0.0989501 0.022336137 0.0031985112 -0.0006713986 0.046922352 -0.018087318 -0.018803837
-0.033638105 0.09799837 -0.12722322 0.06172055 0.063707836 -0.004323108 -0.023575308 0.112275615
-0.05791044 0.10731265 0.089017406 0.06809696 0.008945973 0.18447483 -0.047843732 0.041567206
-0.027507866 0.005284071 0.043531146 0.06537442 -0.006486652 -0.089132406 -0.094175614 0.03125161
0.10378083 -0.02068746 -0.07263631 0.010957009 0.08508699 0.019399323 -0.041350212 0.11288809
0.004465482 0.016736833 -0.03284298 -0.010317248 -0.086053066 0.034369934 -0.03131617 -0.053604584
0.08771233 -0.058840796 0.013752899 -0.027735015 -0.069907226 -0.06731578 -0.07117329 0.0037535091
-0.019609204 -0.065001234 -0.05246245 0.006033722 0.02133727 0.0050088256 0.017727977 0.045118228
0.049058136 -0.03254057 0.020522622 -0.0061572273 0.005706628 -0.07584305 -0.06684546 -0.008895094
-0.06722428 -0.008060863 -0.01873058 -0.14954996 -0.12550642 0.14615917 0.13450547 0.1580209
0.052350566 -0.0400347 0.016135065 0.016784025 -0.053177524 -0.049834847 0.031280696 0.018118145
-0.029005663 -0.21073616 -0.045526303 0.023032734 -0.06449207 0.028692212 0.00681646 -0.12678546
-0.032791175 -0.054009397 -0.014148597 -0.00697609 0.16478734 -0.046966277 -0.123780586 0.033306733
-0.12241812 -0.15139008 0.05837418 -0.024760803 -0.069825694 0.019082485 -0.026478654 0.002604556
0.119891 -0.034632422 -0.06332933 -0.013368128 0.052750744 0.06103973 0.01493029 -0.0018257416
0.044675928 0.07525673 -0.20356795 0.06418099 0.03367873 -0.021988688 0.13664646 -0.020127924
-0.08073658 0.0056665223 -0.07456442 -0.033412255 -0.08996029 -0.026340865 0.07917702 -0.004853408
-0.012821671 -0.003540259 -0.07217969 0.053905927 0.024468465 0.13418508 0.0122152325 0.03270549
3.578048e-05 0.02377197 0.051314402 0.12246075 0.025365198 -0.044182394 -0.04202332 0.011142247
-0.11134108 -0.07216181 -0.06291148 0.0016556412 -0.03144655 -0.023596544 0.11299978 0.029563518
0.056641687 0.09071022 -0.09873533 0.038586896 0.07975176 0.053490084 -0.011290967 0.06202319

l1.weight f4 [168, 252]
00000000: 4ff1 3dbd 74a0 173d 8171 f63b 95d9 ba3c
00000010: 1c10 4b3e d94b bb3d 0a23 503c c09e f63c
00000020: 258a ddbc 778b be3d f171 fb3d ecd5 7c3d
00000030: a25b 57bb 3f31 b23c e271 3c3b a6b8 0d3e
00000040: b87b 323e ee51 823d 4845 95bc 1681 8a3c
00000050: 917d cb3c 20de cb3b ae01 523d 4e16 c23d
00000060: 19aa b0ba 81b1 1c3e ad96 13be 1053 95ba
00000070: 07e0 39bd 80fe 063d b336 c3bc 3020 ccbc
00000080: 68e4 973d f83f 48bd 295e 1ebe a76d 3ebc
00000090: 81eb 2a3d 54d6 f63d e1c6 1f3d 5506 b4bb
000000a0: 322a 393d 83f1 b23c 6ea5 1abc 7eea 923d
000000b0: dce0 a0bd d402 1dbd d544 9e3d a99f 34bc
000000c0: ec2a 6a3d 5130 cf3d c879 c73d 08b5 21bd
000000d0: e546 9dbd 2a13 20be 3385 a5bc 1de5 82bc
000000e0: 9238 503d afae bebd 6cd2 bc3d d74c ba3d
000000f0: c2c9 bcbc 9b60 92bd 10d8 20be 8044 acbc
00000100: b0b2 993d 90ab a23d d081 6bbc 9e51 153e
00000110: eb40 7abd a193 bebd 343b 913d 00d6 23be
00000120: aee8 353d a9aa 49bd 1bb0 bc3d 3c7f ac3b
00000130: dfed 983d 1161 d2bd 962e 90bc a641 f43d
00000140: 01a4 b9bb 71b8 a33b a529 193e 3c2f b13d
00000150: dd69 4c3c f113 f13d d105 afbc 0910 9e3d
00000160: e1ba ac3d 2c91 3b3e 917f 3abc 4fa5 56bd
00000170: 1e71 30bd 1710 953d 7343 14be b76d 2ebe
00000180: 9c72 fa3d 4f71 0cbe 3531 0a3e 2ac9 053d
00000190: 289e d3bd fd8c 94bd e9e2 b2bb 5309 033d
000001a0: 6310 613e 4782 b7bd e78a d0bd c3c4 373c
000001b0: 5b1c 63bd 5d39 573d 223a 103e f0ff 5fbd
000001c0: abf2 563c 3fa5 143e 057e a53d fa10 c73c
000001d0: 4e0d 2c3d 0faf 8abd e084 063d 4111 2a3c
000001e0: c00d 06bd 1d5c 9dbc 76fb 14be 5e73 433d
000001f0: 2953 0cbe db0d ccbd c325 1cbd fd02 a33a
00000200: df5d e0bd 4e64 dc3b edd4 d93c c9dd 803d
00000210: e79a b0bd c8bf d6bc 7e69 72bd 7d9d 283d
00000220: 97b9 063c a26e 1dbd 6d83 55bd cb26 393d
00000230: a518 4cbd 9520 f03a 16c9 00be 1430 f63c
00000240: c5a3 f23c 08be 243d 9e67 a43d af8d 8e3c
00000250: 4891 bf3d 7a1b 553e 92fd c9bd 9e70 923d
00000260: ef88 08bc e05c 80bc 7a2f a5bd 40c9 d03d
00000270: 3254 0c3b 9380 0dbd ad76 7c3d 9fc2 17bd
00000280: 8766 943e 68fa 1e3e 834c ee3d 8395 dc3d
00000290: 34f5 db3d 576a 0ebd 92a1 ba3d fb09 873c
000002a0: e3be c23d b7d5 913e 8606 183e d642 0e3d
000002b0: 8fee a43d ed13 5e3c 9b0f 863c 3c63 9fbd
000002c0: 614b a13d 470b c5bc fcfa 1a3a 5f94 443d
000002d0: dd14 2abc 69f7 a53d 1723 763d 9864 44bc
000002e0: f3b3 2e3e da68 6e3e 7bcc 333d f3d2 843e
000002f0: be8c dbbc 64d4 933d f501 f03c 9705 1d3c
00000300: 1ce6 8abd 17e6 203e 5f86 b73d 8acc 2e3e
00000310: cd1d 6e3e d8fc a8bc 898a 913c e991 803d
00000320: 47ea 7c3d 79fe b83b 8d0e d03c 0e1f 053e
00000330: 284e 77bd b307 98bb bcdf 1a3b 7087 ac3d
00000340: a647 6c3c d31d b6bc ebb6 3a3d da93 e1bd
00000350: ad2e 073d f3df 303d 2fc0 9ebc d9ff 56bd
00000360: dc63 013d e688 f33d bbe5 cabd 657d b9bd
00000370: da11 d93d 85ff aabd 8331 49bd 3a64 02be
00000380: 7dfd 1ebd 3449 863b 78f2 d73d 2dc4 09bd
00000390: 14e5 51bd 48df 1d3c db62 b63d 6462 e13d
000003a0: 47f8 413e 37fd 623e 6813 ad3a 5db1 473d
000003b0: 2317 b9bc 2ef6 1b3d 7c3d f13a 7803 25be
000003c0: f502 a73d a46c 05bc 62e2 0bbc 6fb5 d83c
000003d0: 8219 3e3d 8123 f53c 10b2 c9bc 5351 183b
000003e0: 5ee2 56bd 0cfe 953d 27ca e23d 7d2a 3aba
000003f0: b9a5 d2bc 8fb4 e53d 0d96 b13b 451e a33d
-0.046372708 0.037018254 0.007520855 0.02280883 0.19830364 0.09145326 0.012703666 0.030104995
-0.027043412 0.093039446 0.12277592 0.06172745 -0.0032861014 0.021751998 0.0028754403 0.13839969
0.17430007 0.06363283 -0.018221512 0.016907256 0.024840148 0.0062215477 0.051271133 0.094769105
-0.0013478427 0.15302087 -0.14412947 -0.0011392552 -0.045379665 0.032957554 -0.023829794 -0.024917692
0.07416612 -0.04888913 -0.15465607 -0.011622823 0.0417285 0.120525986 0.039008025 -0.005493919
0.045206256 0.021843677 -0.009438856 0.07173632 -0.078553885 -0.038332775 0.077279724 -0.011024394
0.05716984 0.101166375 0.09740025 -0.039479285 -0.07679538 -0.1563231 -0.020205116 -0.01597839
0.0508352 -0.09310662 0.09219822 0.09096687 -0.023045424 -0.07147332 -0.15707421 -0.021028757
0.07504785 0.07942879 -0.014374211 0.14581916 -0.061097067 -0.09305502 0.0709137 -0.15999603
0.044411354 -0.04923502 0.09213277 0.005264191 0.07467245 -0.1027242 -0.017600339 0.11926584
-0.0056653027 0.0049963524 0.14957292 0.08651587 0.012476412 0.11771382 -0.021365078 0.07717902
0.08434082 0.18317097 -0.011382953 -0.052403744 -0.043076627 0.072784595 -0.14478855 -0.1703404
0.12228891 -0.13715099 0.13495333 0.032662548 -0.103329 -0.07253454 -0.0054591787 0.031991314
0.21978907 -0.08960395 -0.101827435 0.011216345 -0.055446964 0.05254494 0.14084676 -0.05468744
0.01311938 0.14516161 0.08080677 0.024300087 0.042004876 -0.06771671 0.032841563 0.01038009
-0.032727957 -0.019208962 -0.1454905 0.047717445 -0.13703598 -0.0996358 -0.03812195 0.0012436804
-0.109554045 0.0067258244 0.026590789 0.06292302 -0.08623295 -0.026214495 -0.059182636 0.041165818
0.008222959 -0.038435586 -0.05212729 0.04520301 -0.04982819 0.0018320257 -0.12576708 0.030052222
0.029619107 0.04022029 0.08027576 0.017401544 0.09353882 0.20811263 -0.09862818 0.07150386
-0.008333429 -0.015669286 -0.08065696 0.101946354 0.002141249 -0.034546446 0.061636616 -0.03705084
0.28984472 0.1552521 0.11635687 0.107707046 0.10740128 -0.034769382 0.09112848 0.016484251
0.09509065 0.28483364 0.14846238 0.03473171 0.08053314 0.013554555 0.016364863 -0.07782599
0.078757055 -0.024053229 0.00059120334 0.04799306 -0.010380951 0.0810383 0.060092058 -0.011986874
0.17060833 0.23282185 0.04389618 0.2594219 -0.02680051 0.07218245 0.029297808 0.009583852
-0.06782171 0.15712772 0.08961176 0.17070213 0.23253556 -0.020628378 0.017766254 0.0627783
0.06174686 0.00564557 0.025397563 0.13000128 -0.06037727 -0.0046395897 0.0023631891 0.0842427
0.014421379 -0.022231018 0.0455846 -0.110145286 0.033003498 0.043182325 -0.01937875 -0.05249009
0.031589374 0.11891346 -0.09907099 -0.0905712 0.10599108 -0.08349518 -0.049119484 -0.12733546
-0.038815964 0.004098082 0.10544294 -0.033634353 -0.051243857 0.009635754 0.08905574 0.11005095
0.18942367 0.22166906 0.0013204636 0.04875313 -0.02259404 0.038076572 0.0018405165 -0.16114604
0.08154861 -0.008143578 -0.008537861 0.026453702 0.046411045 0.029924156 -0.02462104 0.0023241832
-0.052461974 0.07323846 0.11073714 -0.0007101668 -0.025713788 0.112160794 0.005419499 0.07964758

l1.bias f4 [168]
00000000: 72fc b3bc 79e2 4e3d 9233 bdbc b1d7 303d
00000010: ff6f 50bd 3422 613d 36f1 573c a277 72bd
00000020: 7468 8a3c f3db 1a3d 3b96 46bd cc61 42bd
00000030: 2a8a 9f3c 1e6b 9f3d 396a 9b3c f5db 2c3d
00000040: a6c9 653c 773d 6d3d 25b0 ab3d 68af c2bc
00000050: 9263 6c3d c039 f03b 4ab5 6c3b 9886 b5bc
00000060: 866f 473d a590 413d 631d 813d 76ac 82bc
00000070: 4ca7 953d 1da2 a3bc 76a3 94bc f32a d13c
00000080: c482 c2b6 8279 9cbb a853 ac3c 2710 b4bc
00000090: b61d ddbb d8e4 923c a423 e8bc 0e04 953c
000000a0: 5b5e 22bd be38 a73c 57cc 483d 6a83 403c
000000b0: 9e8d dcbc e66a 1abd 02cb 2c3d 0b8c 15bd
000000c0: 27a6 cc3c 4a7f 6bbd 0313 5fbc 6c21 083c
000000d0: a989 3ebd c885 21bd fa93 633b b3d7 6c3c
000000e0: af5a 24bd 351e 3ebd 4ddb 4dbc 9c0d 783d
000000f0: 3437 8d3b 1ad7 65bc c732 f43b 8c71 3f3d
00000100: b069 46bc 5bda 3ebd 7eb0 a2bc 6ac5 d7bb
00000110: 8eee 88bc abf9 0ebc 6f31 3cbd f5bd 04bd
00000120: a1b6 05bd 2a85 8e3d a5df 343d 190e 023d
00000130: 45f2 1c3c 6ae7 1f3d 7102 de3b 1b1c 4dbd
00000140: 8971 82bc 7064 053c 58bd 4cbd 80f7 903d
00000150: e3fa 47bd 1295 783d 56d4 39bd 0c9e 083d
00000160: 77ef 703d 675c 8c3d 62b4 2a3c 6379 0d3c
00000170: 6a76 67bd f36d 2e3b b649 9abb e8b6 06bd
00000180: 4af8 fcbb cd2a 5abd 3827 4bbc 888c 603c
00000190: 441b a5bc 5f85 3ebd 1985 45bd fec1 ba3a
000001a0: 508a acbc ff70 ab3b 94cc f3bb a64e 993d
000001b0: 8cfe efbc 9632 113d 05af 3ebd e440 093d
000001c0: d083 8b3d 4212 c0bc 3de4 793d 3da6 6a3d
000001d0: 062a 873d 28ac f93b 6e57 ab3d 2d60 50bd
000001e0: ce44 873b 8425 283d 498b 94bc f225 4ebd
000001f0: 1de7 c6bc fea8 a6bc f292 393d ca34 31bd
00000200: a1b1 9ebc 86db 073b d115 963c 5e7e 9f3d
00000210: 86c0 56bc 3f7f 673d 06ec 763d d12e 163d
00000220: 1659 013d e6e0 7d3c 3ea7 d93c 409a 9cbc
00000230: d27b a8bc ed8f 3ebd 34f5 2d3c cdb3 7d3d
00000240: 21f5 6d3c 6c97 333d a3d0 bcbb 1a95 48bd
00000250: 6cc4 413d 4411 b1bc 6639 40bd 965d 9e3c
00000260: 9297 fdbc 8e3b b3bc 7177 20bc 6d2d adbc
00000270: e268 8b3b 1304 04bc 1fdf be3b 175b 01bd
00000280: 313b 8dbd 811b 993d 2824 d8bc fe1f 3fbd
00000290: 863b 493b aa2c 423d ff60 453c 7ae3 963d
-0.021970961 0.05050895 -0.02309588 0.04317445 -0.050888058 0.05496426 0.013180068 -0.059196122
0.01689551 0.037807416 -0.048483115 -0.047456548 0.019475061 0.07784103 0.01897155 0.042201955
0.0140251275 0.057919946 0.08383206 -0.02376528 0.057712145 0.007331103 0.00361188 -0.022158906
0.04869034 0.047257084 0.06304433 -0.015951376 0.073073 -0.019974763 -0.01814435 0.025533175
-5.7968737e-06 -0.004775227 0.021035984 -0.021980358 -0.0067479266 0.017931387 -0.028337307 0.01819041
-0.039640766 0.020412799 0.049023 0.011750082 -0.026922997 -0.037699603 0.04218579 -0.03651051
0.024981571 -0.05749444 -0.013615373 0.00830875 -0.046518 -0.039434224 0.0034725652 0.014455724
-0.040125545 -0.046415526 -0.012564492 0.060559854 0.0043095592 -0.014028335 0.007452342 0.046739146
-0.012110159 -0.04659496 -0.019859549 -0.006584813 -0.016715314 -0.008726518 -0.04594558 -0.03240772
-0.03264487 0.06958993 0.044158597 0.031751726 0.009579246 0.039039053 0.0067751934 -0.05007563
-0.015923278 0.008141622 -0.04998526 0.07078457 -0.04882325 0.06068904 -0.045368515 0.03335385
0.05882212 0.06853562 0.010418983 0.008634898 -0.056509413 0.0026615828 -0.004708494 -0.032889277
-0.007720028 -0.053263474 -0.012399487 0.01370538 -0.020154603 -0.04651391 -0.048222635 0.0014248488
-0.021062046 0.005231976 -0.007440159 0.07485704 -0.029296182 0.035448633 -0.04655363 0.03350915
0.068122506 -0.023446206 0.06100868 0.057287443 0.06599812 0.0076193996 0.08366285 -0.05087297
0.004128075 0.041051403 -0.018132823 -0.050329156 -0.024280125 -0.020344254 0.045306154 -0.043263234
-0.01937181 0.0020730211 0.01832095 0.077877745 -0.013107425 0.056517836 0.060283683 0.03666574
0.0315791 0.0154955145 0.026569005 -0.01911652 -0.020566855 -0.046523977 0.010617543 0.06193905
0.014523775 0.04384558 -0.005762176 -0.04897032 0.047306463 -0.021614678 -0.04692974 0.019331735
-0.030956063 -0.021878984 -0.009794102 -0.021139825 0.0042544464 -0.008057612 0.005824938 -0.03158101
-0.068960555 0.07475949 -0.026384428 -0.04666137 0.0030705645 0.047405876 0.012047051 0.073676065

l2.weight f4 [100, 168]
00000000: 14fb 5d3d 1f21 70bd 4e3c a1bc 76e8 f13d
00000010: dda0 96bd 8606 ecbd 5eec 453c d179 423d
00000020: 326b 133d 0662 cebd 98f1 38be c9e4 2a3d
00000030: 5299 283d f2de 42bd e65e 5c3d 3335 1bbd
00000040: 9649 3d3c 7f9f 283d fd35 94bd c7cc 7ebd
00000050: 8b8f 3e3e 9da2 b03c a9dd 41bd f8f2 813d
00000060: 9355 7c3c 4021 e1bd 5847 d43c 22eb ac3c
00000070: 4109 80bb a3eb 1b3d ffcc 26bc 3e6c 5abd
00000080: 835e 48be fcb7 0fbd 565e 89bd a2a1 9e3d
00000090: 994d 11be 2d10 ec3d 61b5 01bd 8656 803d
000000a0: 387a 8abd 13ee 38bd 6c25 a9bd 9c19 debb
000000b0: ed9b 003d 03e5 78ba 81a9 df3c f274 4bbe
000000c0: e288 1c3d 78e3 3a3c b5fd 41bd 7f3c ec3d
000000d0: 7587 923d 4083 343d e17e 48bd da51 1f3d
000000e0: 0f24 28be 6a88 dc3d 1904 bdbd ae83 143e
000000f0: e62d 37bd 6336 90bd b0f2 e4bd e46c 4b39
00000100: 0e42 493e 977f c3bd dc9e e83d fd63 b3bd
00000110: 0ce0 66bd 3800 91bc 20d7 f2bb 1639 11be
00000120: d6c8 003d 8b25 313d 8ae7 19b9 0420 41be
00000130: 5803 4e3c d4da 01bd 0e0a 013d 4b6f 91bd
00000140: 4e03 9fbd fa2e c43d d930 e83d 33ac a33d
00000150: baa2 c63d bc83 8abe cfae 8f39 e78c 313d
00000160: f88b fdbd 651e a13d f727 98bd 7c21 0abe
00000170: 8d1e 98bc 6603 19bd 4cb4 823d 1a59 c1bd
00000180: e8cf f5bd 147e 083b 46d5 233d 61c2 d73d
00000190: 4b6d 623d 3b51 863d e065 bebd 9635 17bd
000001a0: 9995 cfbd dfe6 8bbd 4f11 d03c 66ab 243e
000001b0: e9c1 c9bc 2b82 b6bb 0aa4 923d b6d7 13be
000001c0: 4502 8f3d 0766 7e3d b221 28be 5b24 023e
000001d0: 1a6b 5dbe 338a 9dbd 89a8 63bd 9e05 943a
000001e0: 4186 c0bb c1c3 983d 0c63 8cbd 9b69 833d
000001f0: 41ac 043c 9998 0abd fd05 053c 47f0 a83d
00000200: 62d7 c2bd 7a7e 95bd fc0c cabd c137 2a3b
00000210: 924a aabc 80c8 9a3d 0739 fc3d 7a31 e03d
00000220: f729 64bd caa8 2b3c d431 c3bb 7826 3e3b
00000230: d572 cd3d 11fc f9bb 89d8 9e3c 8820 ecbd
00000240: 4499 dcbd c16e 59be b1c4 6fbd 087d 123d
00000250: d149 2ebe a38a 63bd cb98 c2bc 4efb 853d
00000260: aa0a 09bc 2426 c23b 3293 08be e0a1 dabd
00000270: 10a7 143c 5b72 c33d a44e 753d 1959 273e
00000280: 6e2f 03be 6fd2 7f3c 33dd 8abd 3619 cd3c
00000290: f4bb 8dbb f8c6 e03d c864 203d ab24 debd
000002a0: a050 50bd 4474 03bb e000 89ba 9247 bbbc
000002b0: 2835 67bd 0506 2bbd c98a 973c 058d 033c
000002c0: 8492 253b 8677 6ebd 8710 713d 1c92 223d
000002d0: 55d5 1bbd 8dc7 aebb d38d 3f3c b197 60bc
000002e0: b77c 8f3d 7854 57bd 92d5 813d 776e 5f3c
000002f0: fab9 343d d3fc 313d 5aa0 763d 0bfa 293c
00000300: 6a78 e639 d518 89bd f53b 66bd 938a 20bd
00000310: f8c9 bbbc f6ef 1fbd f4a9 6fbd fe0d 99bd
00000320: eae0 84bd 6e96 073d 6ec7 71bd ae0e f63b
00000330: 60f9 90bc a517 043d 616e cebb 1a78 8dbb
00000340: 5105 26ba 94bc 6b3d cfac 0a3b 6bd3 43bd
00000350: 6331 9bbd 6fca 75ba 0c04 883a 7234 8c3d
00000360: dc4e 3cbc a047 733c fb6f 873d 74fd df3c
00000370: 1841 653d d640 d5bb 7d0b 24bd 5950 57bb
00000380: d92e e83c fd77 b43c 14d6 79bd f13a 073d
00000390: 578e 063b ac2f 3ebd 9937 87bd 2ff5 19bd
000003a0: 7a88 1a3b 3538 29bd b532 4fbd 609f 4a3d
000003b0: 77bd 9fbc 7cec d7bc a5f5 f8bc cc51 833c
000003c0: 8a21 3fbd d3b3 083c df05 49bc 15c0 513c
000003d0: ac6b e83c 5868 893d ff31 063d c861 8e3d
000003e0: 411a 723d 0aa3 8ebd 368c e03c fb32 2bbd
000003f0: 2f6f 52bd b74e 4e3d 0b58 87bd bf4b fbbc
0.054194525 -0.058625337 -0.019682076 0.118119165 -0.07354901 -0.11524682 0.01208028 0.047479454
0.0359909 -0.1007729 -0.1806091 0.041722093 0.041161843 -0.0475759 0.05380144 -0.03789253
0.011553189 0.041167732 -0.0723686 -0.06220701 0.18609445 0.021561915 -0.047330532 0.06345171
0.015401262 -0.1099267 0.025912926 0.021108214 -0.003907353 0.038066518 -0.010180711 -0.053325884
-0.19567303 -0.03508757 -0.06707446 0.07745673 -0.14189757 0.11526523 -0.031667117 0.06266503
-0.067615926 -0.04514892 -0.08259091 -0.006777955 0.031398702 -0.00094945746 0.027302505 -0.1986883
0.03821648 0.011406772 -0.047361095 0.11534976 0.07154743 0.044070482 -0.048949126 0.03889642
-0.16420005 0.107682064 -0.09229297 0.14503357 -0.044721507 -0.070416234 -0.111791015 0.00019400154
0.19654104 -0.0954582 0.11358425 -0.087593056 -0.05636601 -0.0177003 -0.007410899 -0.14181933
0.031441532 0.043248694 -0.00014677472 -0.18859869 0.012574039 -0.03170283 0.03150373 -0.071013056
-0.07764302 0.095792726 0.11337442 0.07991829 0.096990064 -0.2705363 0.00027405328 0.043347266
-0.123802125 0.078671254 -0.07429498 -0.13489336 -0.018569255 -0.037356757 0.06382045 -0.09440823
-0.120025456 0.0020827102 0.039998315 0.10535122 0.05528001 0.06558462 -0.09296775 -0.036916338
-0.10135955 -0.068311445 0.025398878 0.16081008 -0.024628596 -0.0055697164 0.07160194 -0.14437756
0.06982855 0.06210902 -0.16419104 0.12709181 -0.21622887 -0.07692375 -0.05558065 0.0011293178
-0.0058753793 0.07459212 -0.06854829 0.06416627 0.008097709 -0.033836935 0.0081191035 0.08248954
-0.09513737 -0.07299514 -0.09865758 0.0025973173 -0.020787511 0.075577736 0.123155646 0.10946937
-0.055704083 0.010477254 -0.0059568677 0.0029014628 0.10031668 -0.0076289256 0.019390361 -0.11529642
-0.107714206 -0.21233656 -0.05853719 0.03576377 -0.17020346 -0.055552136 -0.023754498 0.06542073
-0.008364359 0.005924957 -0.133374 -0.106754065 0.009073034 0.09543296 0.05988945 0.16342582
-0.12811062 0.015614136 -0.06780472 0.025036436 -0.0043253843 0.1097545 0.039158612 -0.108468376
-0.05085814 -0.0020058313 -0.0010452531 -0.022861276 -0.056447178 -0.041753788 0.018498795 0.008029227
0.0025264332 -0.058219455 0.058853652 0.039690122 -0.038045246 -0.005333847 0.011691528 -0.013708041
0.07006209 -0.05257079 0.063395634 0.013637177 0.044122674 0.043454003 0.060211517 0.010374556
0.00043958734 -0.066941895 -0.056209523 -0.039194655 -0.022923455 -0.039047204 -0.05851169 -0.07473372
-0.064882115 0.033102445 -0.05902808 0.007509074 -0.017697036 0.03224911 -0.0062997793 -0.0043172957
-0.00063331897 0.05755289 0.002116013 -0.047809046 -0.07577779 -0.0009376173 0.0010377183 0.06845941
-0.011493411 0.01484862 0.066131555 0.027342536 0.05597028 -0.006507973 -0.04005002 -0.0032854287
0.028342651 0.022029871 -0.060995176 0.033015195 0.0020531619 -0.046432182 -0.06602401 -0.03758734
0.0023579882 -0.04131337 -0.050585467 0.049468398 -0.019499524 -0.026357882 -0.03039057 0.016030215
-0.046662845 0.008343655 -0.012269466 0.012802144 0.028371654 0.06709355 0.032762524 0.06952244
0.05910707 -0.06964691 0.027410608 -0.041796666 -0.051375564 0.050368037 -0.0660859 -0.030675767

l2.bias f4 [100]
00000000: 045c 6e3d 9018 8c3c 81ea b23d 0823 083c
00000010: cce2 69bd e363 963d cd60 54bd 31db 793d
00000020: e8d3 793d e592 043d 9a31 f13c 0ed1 67bd
00000030: 86e9 0a3d 3906 bd3d 9b6e 94bd 12d1 30bd
00000040: 1f16 873d 2545 a8bc 0db9 8bbc a1c7 0a3d
00000050: 4db5 a2bc c8ec 603c 7add a93d 7f71 8b3d
00000060: 97bc a43d d67f 0a3d 5793 34bd 67a8 283d
00000070: 70db 37bc cb9d 65bd 23f7 0fbd fb8c bdbc
00000080: ff67 283d bcc6 1a37 c436 963d 0e6d 483c
00000090: bd0b 843d 60ac 7b3d 5ae7 f63b 83a6 363c
000000a0: 5da7 93bd 62f1 293d 5047 423d 964d debc
000000b0: f5ca 6a3d 1ec5 a0bc 53eb b43b d530 b6bc
000000c0: 9124 a9bc 1917 e3bc 5b8d 25bd 0b6f 6c3d
000000d0: b0e8 353c 78ce 5038 1242 eb3a 057d 563c
000000e0: 0b4c 05bd ad93 0cbd 6cd6 693d ea7d 073d
000000f0: 564c 683d 80d7 043c 76ff 5abc 304f 60bd
00000100: 44e3 86bd 2133 7b3d 8455 c53c 9ee7 813c
00000110: c426 9ebc 9cc6 35bc 4a78 2e3b d457 7ebd
00000120: 7f0f b1bb 62df f93c 101f 4a3d e1bc 07bd
00000130: 4684 873d 7397 783c 956d b2bc eb26 953d
00000140: e4ec c5bc dcd6 fabc cd58 8d3c e762 5c3d
00000150: 2c8d 4bbd 9ea0 a53a 2447 1f3d 9dac 883a
00000160: 116d 193d 8f20 7a3d f3d1 d03a c142 0c3d
00000170: 0eb8 553c fc5b 51bd 5815 93bd fe08 3d3d
00000180: 7a46 5e39 9f6a 73bc 8179 3b3d 0f0a 393d
0.05819322 0.017101556 0.08736134 0.008309133 -0.057101056 0.07343271 -0.05185013 0.061000053
0.060993105 0.032366652 0.029442597 -0.056595854 0.03391411 0.092297025 -0.07247659 -0.043168135
0.06596016 -0.020540783 -0.017056013 0.033881787 -0.019861842 0.013728328 0.082941964 0.06808757
0.08043783 0.03381332 -0.044085827 0.041176226 -0.011221752 -0.056058686 -0.035147797 -0.023138514
0.041114803 9.225387e-06 0.073346645 0.012233032 0.064475514 0.061443686 0.0075349035 0.011148098
-0.072096564 0.041489966 0.04743129 -0.027136605 0.05732246 -0.019625243 0.005521217 -0.022240082
-0.020647319 -0.027720975 -0.04041801 0.057723086 0.01110284 4.9783353e-05 0.0017948768 0.01309133
-0.032543223 -0.034320522 0.057089254 0.033079065 0.056713425 0.00810802 -0.013366571 -0.05476302
-0.06586316 0.061328057 0.024088629 0.015857514 -0.019305594 -0.011094715 0.002662199 -0.06209548
-0.0054034586 0.030502025 0.04934603 -0.033139113 0.06617026 0.015172827 -0.021780768 0.07282814
-0.02416081 -0.030620031 0.017254258 0.053805258 -0.04969518 0.0012636369 0.038886204 0.0010427419
0.03745753 0.061066207 0.001593171 0.03424335 0.01304437 -0.051113114 -0.07181805 0.046151154
0.00021197824 -0.014856963 0.045770172 0.04517561

bn10.weight f4 [10]
00000000: d35b 803f 6326 6f3f 8eec 1c3f 4544 a03f
00000010: 4e1f 173f 5301 7d3f 9997 3d3f 5467 ae3f
00000020: b5a0 493f 0d86 ac3f
1.0028023 0.9341795 0.61298454 1.2520834 0.5903214 0.98830146 0.74059445 1.3625283
0.78760844 1.3478409

bn10.bias f4 [10]
00000000: b6a7 9fbc fb9e 41b8 98fd 17be dd15 5d3c
00000010: 8fa8 1f3e 13e3 233e 6086 8f3e ae7a 423d
00000020: 3246 f63d 12eb f3bd
-0.01948915 -4.6162848e-05 -0.14842832 0.013493982 0.15591644 0.1600459 0.28032207 0.047480278
0.120251074 -0.119100705

bn10.running_mean f4 [10]
00000000: 47b9 0fbd 49d4 6d39 38a1 bf3c 4576 97bd
00000010: b8cc 0e3d ad85 493e 5587 8d3d 4849 e0bd
00000020: 4bd2 0b3d 2294 d4bd
-0.035088804 0.00022681164 0.023392305 -0.07395605 0.034863204 0.196799 0.06910578 -0.10951477
0.034136098 -0.103798166

bn10.running_var f4 [10]
00000000: 4ee0 663d b166 7a3d 31bb cb3c c824 5e3d
00000010: b089 9b3c 2862 163e c52d 133d 46e2 8f3d
00000020: a100 4e3d 4e24 503d
0.056366257 0.06113309 0.024869533 0.054234296 0.018986553 0.14685881 0.03593232 0.0702558
0.05029357 0.050815873

bn28.weight f4 [28]
00000000: c1fc 463f 8b33 ae3f c380 543f c04a 543f
00000010: e9e3 683f a790 903f 6cea 933f 73ad 7f3f
00000020: 6cb1 713f 337c 833f d1fa 6a3f 814d 673f
00000030: 4eae 533f b297 6c3f eb1d 9a3f c408 5b3f
00000040: 5d97 953f a992 8a3f c002 983f e0ac 533f
00000050: 4a0e 623f 66dc 7a3f 205e 353f de9e 7c3f
00000060: 5453 833f a898 203f dc8d 7e3f 8be9 863f
0.7772942 1.360948 0.83008975 0.8292656 0.90972763 1.1294144 1.1555915 0.9987404
0.9441135 1.0272278 0.91788965 0.90352637 0.8268784 0.9241897 1.204038 0.8556025
1.1686817 1.0826007 1.1875839 0.8268566 0.88303053 0.9799255 0.7084675 0.9867991
1.0259805 0.62732935 0.9943521 1.0540022

bn28.bias f4 [28]
00000000: deea 69be 7a59 51bc e1d7 6fbb 5194 45bd
00000010: c550 42be 2d4f 63bd 5a3e bdbe 4c6e 73be
00000020: 3896 1ebe b0e4 023d d43c 8abe 941d fbbe
00000030: f929 263c d638 40be 2aab da3d ec35 13be
00000040: 02e0 d5bd 9fec bc3d 2c42 8bbe 360e a9be
00000050: fec9 e53d 042e dabe 6fde edbd 2794 c7bd
00000060: c1e6 f7bd 9c84 b83d 0135 87be f7de 47be
-0.22843501 -0.0127776805 -0.003659718 -0.04823715 -0.18976124 -0.05549543 -0.36961633 -0.23772544
-0.15486991 0.031956375 -0.26999533 -0.49046004 0.010141843 -0.18771681 0.10677178 -0.14376038
-0.10443117 0.092248194 -0.27198923 -0.33018655 0.112201676 -0.42613232 -0.116146915 -0.09745055
-0.1210456 0.09009668 -0.26407626 -0.19518648

bn28.running_mean f4 [28]
00000000: 858b 783e 9015 80bf 2697 97ba 9e56 01be
00000010: f1c9 1abe e13e a8be c4af 63bf ed18 2abe
00000020: 7fba 883e 3d79 0c3f d4bd aabe b0a7 ba3e
00000030: 880b f3bc 214d 06bf b7bd a1be 4d70 113f
00000040: 4a2f a6be 543b fdbd 8707 16bf 84a1 613e
00000050: 62a4 233e 3d0d 52be f7fb 263e 0a2f bcbe
00000060: b05e 12bf 0411 173e bd26 303d f29c abba
0.24271972 -1.000658 -0.0011565431 -0.12630698 -0.15116097 -0.32860473 -0.8894007 -0.16611071
0.26704785 0.54872495 -0.33347952 0.3645606 -0.029668584 -0.5246144 -0.31590053 0.5681198
-0.32457954 -0.123648316 -0.58605236 0.2203427 0.15980676 -0.20512863 0.16307054 -0.36754638
-0.5717573 0.14752585 0.043005694 -0.0013093038

bn28.running_var f4 [28]
00000000: 0aa4 e13e 9434 ca3e 453d 103f 90fe 183f
00000010: 5ecc 723f 22bd 463f 5c80 573f 88bc ce3e
00000020: 14d8 653f a53b 9d3f 468a 283f 9117 383f
00000030: 7fdf 513f dc7f 193f 7839 143f dbbe 323f
00000040: 9311 6e3f ab81 2a3f d7d3 663f e88e 103f
00000050: b68b 1f3f 20a4 1f3f c0e3 af3e 6638 e23e
00000060: f0c0 0e3f 0c1e b43e b342 da3e 8491 943f
0.44070464 0.3949324 0.5634349 0.5976343 0.9484309 0.77632344 0.84180236 0.40378213
0.89782834 1.2283827 0.6583599 0.7191096 0.8198165 0.5996072 0.5790019 0.6982247
0.92995566 0.6660411 0.9016699 0.5646806 0.62322557 0.6235981 0.34353447 0.44183654
0.5576315 0.35179174 0.42629012 1.1606908

bn28_1.weight f4 [28]
00000000: 1e7e 4c40 92f7 5640 5635 4140 3377 5240
00000010: df36 5640 894d 4140 2f05 2440 4ebe 5c40
00000020: 7456 4940 5bc6 5740 ac7a 5240 dba2 4c40
00000030: 2359 6240 a7eb 5c40 9cdf 4440 ad98 4e40
00000040: 5893 6240 aa07 6040 7587 7640 7d00 4340
00000050: 9959 6e40 d3af 5340 4a0a 4740 0371 5540
00000060: 026a 5540 c549 4f40 d179 6e40 ccd6 3240
3.1951976 3.3588605 3.0188804 3.2885253 3.347099 3.0203574 2.5628164 3.4491153
3.1459017 3.3714817 3.2887373 3.19744 3.5366905 3.451883 3.076148 3.2280686
3.5402431 3.5004678 3.8520176 3.0469048 3.7242186 3.3076065 3.110003 3.3350227
3.3345952 3.2388775 3.726185 2.7943602

bn28_1.bias f4 [28]
00000000: f9ea 1e3e b1fc f23e 9cdc 9a3e 5c1b da3e
00000010: 5468 c53e 24fd e53e 95e7 a33e 14d5 c53e
00000020: 3b39 c13e f494 a23e b449 d23e 74fb b63e
00000030: ae9d 163f 3cf4 dc3e 9e09 c63e be33 cb3e
00000040: 1de9 bb3e f7d5 993e 4c31 123f 7e63 603e
00000050: dd87 dc3e daa2 c33e 274a bc3e 360e c73e
00000060: ccf1 f03e e06a bb3e 2894 e93e 346d af3e
0.15519322 0.47458413 0.30246437 0.42599 0.3855616 0.44919693 0.3201262 0.38639128
0.37738976 0.31754267 0.41071856 0.35738719 0.5883435 0.43155086 0.38679212 0.39687914
0.3670129 0.30046055 0.5710647 0.21912953 0.43072405 0.38210183 0.36775324 0.3887803
0.47059476 0.36604977 0.45620847 0.34263003

bn28_1.running_mean f4 [28]
00000000: 5758 d4be b85b debd 842f b7be 5888 873e
00000010: a40f a13e b70d 033f 0d71 dd3e fe39 b93d
00000020: b729 e43c 7bdd 8abe c4fc ed3e c60e 323e
00000030: 49e2 713e 7f27 d7be bce4 8dbe b39d ddbe
00000040: b1fb ac3e 9668 9cbe 0f18 14be bd52 2d3e
00000050: b748 cabe edeb 613e ee0e 043e ce41 1ebe
00000060: c2d3 873d 3fb9 79bf 910c 10bf cb5d 90be
-0.41473648 -0.10857338 -0.3577844 0.2647121 0.31457245 0.511928 0.43250313 0.09044264
0.027851922 -0.271221 0.46481907 0.17388448 0.23621477 -0.4202232 -0.27713573 -0.43284377
0.33785775 -0.30548543 -0.14462303 0.16926093 -0.39508602 0.22062655 0.1289632 -0.1545479
0.066321865 -0.9754829 -0.56269175 -0.28196558

bn28_1.running_var f4 [28]
00000000: e439 2a3e 7809 c23e a136 243e 51ee 723e
00000010: fe13 363e b96f b03e 97ab 723e 7002 6d3e
00000020: 29c6 513e 1065 953e a61e 783e 6c89 233e
00000030: 1452 5d3f ff45 ef3e 28ad e33e c1ab 913e
00000040: b7ef 8e3e 3524 9f3e e44c 043f 2ea0 4b3e
00000050: 3b84 c53e 9950 6c3e f789 7c3e 0354 bc3e
00000060: 1b75 0b3f 25fc 8b3e d7f0 9f3e 8842 9d3e
0.16623646 0.3789785 0.16036464 0.23723723 0.17781064 0.34460238 0.23698269 0.23145461
0.20485748 0.29178667 0.24230441 0.15970391 0.86453366 0.4673309 0.44468045 0.2845135
0.27917263 0.3108231 0.51679826 0.19885322 0.38577446 0.2307762 0.24662004 0.36782846
0.54475564 0.2734081 0.31238434 0.30714822
